codes/DQN/runscritic.pth (torch, 12971 bytes, 6 tensors)

l1.weight f4 [64, 3]
00000000: b483 5b40 9e9a 9640 0569 a83e 97b2 cb3e
00000010: b641 803d bb56 7939 062a 6cbd 8890 37bf
00000020: 2b44 b53c 7a56 a1be 87a1 68bf 3347 b0b9
00000030: 19b3 c2c0 c363 80bf ed2f 663b 1ef0 4c3f
00000040: a631 503e 54af 923d a97c b2bf f725 623f
00000050: 4f3d 093a 58dd 57c1 a201 f23f bae8 e7bb
00000060: 281c 12c1 1c9c e840 5a66 573e a622 893e
00000070: abab dbbc 62a6 13bd 6091 b43e 6ef7 75bf
00000080: a88a 2cbd 61ec 83bc 9e3d acbc 94ab 813d
00000090: 19f7 c6c0 43d7 54c0 3acf 32bd a05b 083f
000000a0: b33b d43c bc45 0a3d 671e 82c0 57e2 2641
000000b0: ca60 263d fc24 8e3e b261 9f3e 65d2 ec3c
000000c0: 5764 0bc1 d4a6 33c1 3bbc 25bc 1533 8ac0
000000d0: 66a1 ccc0 b96c ab3c 4c84 89bf e610 983f
000000e0: 54ef d8bf 7eb1 893f 5744 40bf 47c7 afbf
000000f0: 8356 a53e 2c08 15bb 44db ae3b a7df 36c0
00000100: 4c01 883f 90bc 5abf 22c3 283e 8aac a83d
00000110: 15ce f5ba bbf3 623f be14 423e 1fe0 cdbf
00000120: e1ff 4f3f b917 13bf 7c6f e73f 6169 c6c0
00000130: 9fb8 03c1 03b1 28c0 5a6f 7040 f549 0e40
00000140: 5bf7 153e a9e3 c8be 4a07 92c0 aeff 783c
00000150: d91d ff3f 88cb 66c0 e05f 6340 32d1 4b3d
00000160: 3eec b8be af14 bd3c f325 42c1 cbc6 503f
00000170: 11e2 f2c0 d4ed 23c1 09ea 2fc1 d088 5840
00000180: e79b 1a3f b2ed 5bbd 4864 303b f88e cc3e
00000190: 42c3 b3be eac1 3f3d 14db 513e 1534 2741
000001a0: 5866 37bf 6713 23c1 4b62 7241 bde5 3840
000001b0: 153f f4c0 3655 4e40 2dc2 1d3d 0d7f b53d
000001c0: 1115 06bd eb75 cd3c b5ad 543d 5903 33be
000001d0: 2b16 063d d097 bec0 9e39 55c1 47e0 02bf
000001e0: 35ae b9bf c9ee 0840 e866 22bd f462 8ec0
000001f0: 4610 51be 2b96 053e 203f 893d 853c d1bb
00000200: 6f07 f53b 981c f3be 9ae7 693d b614 4abc
00000210: 1037 43c0 9728 543e fdfb 19bd 4104 c33b
00000220: 1f13 0bbf 618a cc38 7784 8fc0 621a 893c
00000230: 6890 c23b f71f 74be 2e4a 28be 6ec8 5cbc
00000240: ba9d d4c0 4427 3dc1 e62a 37bb 845e 14c1
00000250: 7de2 acc0 8390 dbbc a40d 49c0 f4e9 43be
00000260: b637 4ebf 70fb 62c1 9945 3541 ee49 e6c0
00000270: 4785 0f3f 51e2 6dbe ffce 503d 1171 8a3e
00000280: f0e0 5a3e 2a06 ab3d c1b2 223f 0362 de3f
00000290: d4ee a7bd 1f7f 103f 262c 7040 6ff1 323e
000002a0: 907a 143f f344 d4bd 0ce0 4abb cd0c 45c1
000002b0: 4e74 4040 2d68 9140 24a4 eabe 4aa7 57bf
000002c0: 994a 253a 3d3f 26bf 169f 3140 7b18 53bc
000002d0: 85d1 8bc0 8d07 7241 7da3 ebbf 40ae 433f
000002e0: 90a5 393d 4e55 0e40 e624 da3e 2a1d fc3e
000002f0: 4eff 203d f6be 84be 9a04 93bd 94ad 0abd
3.4299135 4.706374 0.32892624 0.3978469 0.06262533 0.000237788 -0.057657264 -0.7170491
0.022127232 -0.3151129 -0.9087147 -0.00033622383 -6.0843625 -1.0030445 0.003512378 0.8005389
0.2033144 0.071623474 -1.3944293 0.8833918 0.0005235271 -13.491539 1.8906748 -0.0070773037
-9.131874 7.2690563 0.21035138 0.26784247 -0.026815256 -0.036047347 0.35267162 -0.9608067
-0.04212442 -0.016103925 -0.021025475 0.06331554 -6.2176633 -3.3256385 -0.043654658 0.5326481
0.025907373 0.03375791 -4.066211 10.430259 0.04061965 0.27762592 0.31129223 0.028908918
-8.711997 -11.2282295 -0.010115678 -4.3187356 -6.394702 0.020925866 -1.0743499 1.1880157
-1.6948037 1.0757291 -0.7510428 -1.373269 0.32292566 -0.0022740467 0.005336197 -2.8574007
1.0625396 -0.85443974 0.16480687 0.08236034 -0.0018753434 0.88653153 0.18953225 -1.6084021
0.81249815 -0.5745807 1.8080897 -6.2003636 -8.2325735 -2.635804 3.7567964 2.223264
0.1464514 -0.3923619 -4.56339 0.015197678 1.9930984 -3.6061726 3.5527267 0.04976005
-0.36117738 0.023081152 -12.134265 0.81553334 -7.590096 -10.2455635 -10.9946375 3.3833504
0.6039414 -0.05369348 0.002691524 0.39952826 -0.35109907 0.04681579 0.20493728 10.450215
-0.7164054 -10.192237 15.148997 2.889022 -7.6327004 3.2239509 0.03851526 0.08862124
-0.032734934 0.025080642 0.051923472 -0.17481746 0.032735985 -5.956032 -13.326567 -0.5112347
-1.4506289 2.1395743 -0.03964892 -4.4495792 -0.20416364 0.13045566 0.06701493 -0.0063853883
0.007477693 -0.47482753 0.057105638 -0.012334039 -3.0502357 0.20718609 -0.03759383 0.005951435
-0.5432605 9.753253e-05 -4.48492 0.016736213 0.0059376247 -0.23840319 -0.16434547 -0.013475521
-6.6442537 -11.822086 -0.0027949153 -9.273075 -5.4026475 -0.026802307 -3.1414576 -0.19132215
-0.8055376 -14.186386 11.329492 -7.1965246 0.5606274 -0.23230864 0.050978657 0.27039388
0.2137487 0.08350785 0.63554007 1.7373661 -0.0819985 0.5644397 3.7526946 0.17474912
0.57999516 -0.103647135 -0.0030956296 -12.315625 3.0070987 4.543967 -0.45828354 -0.8423964
0.00063053664 -0.64940244 2.7753348 -0.012884255 -4.369326 15.126843 -1.8409268 0.7643776
0.04532391 2.2239566 0.42606276 0.49241 0.039305978 -0.25926942 -0.07178612 -0.033856943

l1.bias f4 [64]
00000000: 7077 08c1 a798 d3be e9e8 70bf 3d6c 7fbf
00000010: 75be c6c0 dd95 2dc0 c768 d7bf 0b0a 48c1
00000020: d6fd 1740 ba28 24bf d788 b6bf 44c3 0abf
00000030: 4207 f0c0 17d7 b2bf fe5a 22c1 3b0b dcbf
00000040: 4bc0 a3c0 d93a fdc0 fda6 30c1 06cb 04c1
00000050: 2187 b6be 95f6 53c0 eff3 79be 722c c9c0
00000060: 6ea3 02c1 3091 c3bf 2bca bdc0 b46c 96c0
00000070: d286 10c1 5acd 0bbf d332 6dc0 47dc 54bf
00000080: daa2 24bf 05c1 73bf 91d4 eec0 86f3 37c0
00000090: 9903 95c0 e702 95be ce22 80bf a07c 63c0
000000a0: 63d3 3ac0 b501 b0c0 25bf 14be 1416 3fbf
000000b0: 5d78 59c0 2309 37bf 474e 91c0 0bea cebe
000000c0: 3592 d6c0 8085 6b3e 4211 26be 6466 80c0
000000d0: a35c 20c0 8ee7 76bf 8536 21c0 d66c bcc0
000000e0: 3314 26bf 05e4 fe3f 7493 77bf 972b 40c0
000000f0: d6c0 d4c0 22fd 61c1 b6f4 b4bf 281a 14bf
-8.52916 -0.41327402 -0.9410539 -0.99774534 -6.210749 -2.712272 -1.682885 -12.502452
2.374868 -0.64124644 -1.426051 -0.542042 -7.500886 -1.397189 -10.147215 -1.7190927
-5.1172233 -7.9134336 -11.040769 -8.299566 -0.3564997 -3.3119252 -0.2440946 -6.2866755
-8.1649 -1.5278683 -5.9309287 -4.7007694 -9.032915 -0.54610217 -3.706227 -0.83148617
-0.6431099 -0.952164 -7.463448 -2.8742385 -4.656689 -0.29103777 -1.0010622 -3.5544815
-2.919152 -5.5002084 -0.14526041 -0.74643064 -3.3979714 -0.71498317 -4.5408053 -0.40412936
-6.7053475 0.23000145 -0.16217521 -4.012499 -2.505654 -0.96447074 -2.5189526 -5.8882856
-0.6487457 1.9913336 -0.9670937 -3.0026605 -6.6485395 -14.1243 -1.413718 -0.5785241

l2.weight f4 [32, 64]
00000000: 0329 d4be 3ed9 473c b7f8 00be 2417 043d
00000010: f11e 06be 5851 41be 186a f73d ea4c cdbe
00000020: 78c9 9ebe 8a55 e4bd 2222 51bd 7b9e 603d
00000030: cfa6 9dbe 4bb9 613d 38c2 44bd 0db5 9dbe
00000040: 04be 07bf f152 78bd abd6 8abe ec53 82be
00000050: af75 5b3d 9097 ccbd ba2c 43bd c3fe c5be
00000060: 03e1 10bf b9ca a8be c395 8cbe 35ca c6be
00000070: ca22 99bd 09f2 11be ee43 9bbe ca53 2ebf
00000080: fe78 cebd a2fa bf3c b0b7 abbd 9fcd 93be
00000090: 09c0 79be f46a bcbd ffcb 25be b6b2 d3be
000000a0: b5ab cbbe 4d3f 9abe 8336 5d3d 4f37 ea3b
000000b0: 8623 ed3d 3c3f 3bbd c14b 5c3c acd3 2bbb
000000c0: a3b3 c5be d853 91be e5c8 0cbe a184 d7be
000000d0: 4c3d 9cbd aab4 28be b297 babd f466 f9bd
000000e0: a78c 0dbe 6576 b0be ca32 3cbd 6406 d7be
000000f0: 0b3c 7bbe 5578 833d d918 ddbd d57d aa3c
00000100: fc9e a93e 64b7 c13f 8555 36c0 c4ae dbbf
00000110: 631f 27bf 01fb b1be 9550 b6bf d31d 3b3f
00000120: d0c3 1fbf 48f5 f8bc 3f11 35c0 495c 93bf
00000130: e0ff 98be aeb4 ddbd 6e6d a1bf 455c 293f
00000140: 771f 21c0 ba8a a9bf 1709 89bf 8740 813e
00000150: 1eba c5be 3c8c 74c0 09b7 783e 5ef4 5cbe
00000160: c76f 4bbf e1c3 533f 8670 00c1 2769 0cc0
00000170: 9b18 64c0 6b2f a2bf 330a c9bf ffcf d7be
00000180: 82f6 1b3e 03c4 4ec0 95bc f2c0 a83a 46c1
00000190: 1b69 1abf e436 86bd 58ab 30bf a999 5fc0
000001a0: 571a 71c0 ce35 47bf c9db 1e3e 8466 3b3d
000001b0: 33ea 1a3f 2fb0 83bd 63e7 cfbf 2144 7bbf
000001c0: 89d1 fdc0 708a 0cc0 7c63 a3c0 f241 3fc0
000001d0: 0afd c43f 2379 543e 1b6e 86c0 8f0f 02c1
000001e0: 5328 11c0 0cb3 083e 298b fbbd 9ad4 b2c0
000001f0: c05e 413f 76d0 0a3f 38fc 4cbe 6f67 71bf
00000200: c1d9 b0be e30e 89be 75f1 0dbe 713a c7be
00000210: c179 42bf 7a3d 2fbe 71a4 96be 55e8 56bf
00000220: 4dfe a6be c26a 943d 42e8 bdbd 56de f8bd
00000230: 8ca0 bfbe 10f3 84bc b595 98bd 8b48 90bd
00000240: 77d1 b4be 4269 acbe 2fc5 53be 110c 02be
00000250: e3de 1bbc a5ce dcbe 8d84 22be d075 303d
00000260: 1e3e cdbe 671d 29be 6b32 0ebd ee9c 30be
00000270: f6cf bebd 0d7c 39be 2efa a8be 93b2 a0be
00000280: df1a b7bd 3a4e 64bd abfe 21be f8c5 ebbe
00000290: 2ab9 f0bd 11a5 4ebd 7ba2 e5bd aba2 02bf
000002a0: 5aed cf3c 1c5d e0be 7a97 29be 52a1 03be
000002b0: 5564 86be 36a5 a1bd 8746 58bd 17fe 973c
000002c0: a5fa 7ebe 49a2 f8be a8b4 abbe 887e 0abc
000002d0: 9480 3d3d 971a 1bbe 2be4 45be d0b5 8fbe
000002e0: 2d7b 7e3c 39cd 4bbe 34b6 aeb9 4a81 adbd
000002f0: dbb0 dcbe c29e 34be 3103 e13c 7295 afbc
00000300: 2109 1fc0 fd61 80bc a833 243e 9383 05be
00000310: 62f4 63c0 88be d83e ff67 8bbe 3250 2e3b
00000320: 29de 0ac1 7d73 613c 8f00 84be cb41 1b3c
00000330: 4792 8cbe 97e7 97be 485d 03c1 71da 71bf
00000340: 6b77 ddc0 2097 51c0 5dda 8fbf 1a4d bebf
00000350: 2b13 a8bb b21b 45c0 a4ef dabd f226 cdbf
00000360: 9508 90c0 0e3f 80c0 626e 4ebf f90e bec0
00000370: 0354 69c0 f56a 203e 807a 4fc0 51fb 9dc0
00000380: 587a 7e3d 2277 bbbd 994c e0c0 a972 afc0
00000390: 48de 19c0 c33a 103d 6c80 253c ac2f 29c1
000003a0: 48e2 c6c0 d799 52c0 eeab 253c b3f1 69be
000003b0: e882 1dbf d021 a6bb 5026 c3bd 417a 7ebd
000003c0: 8ad6 51c0 cb5a 65c0 458f fac0 3904 d0c0
000003d0: 4bb3 3fbe 987c a13e 733d 073f 2037 b0c0
000003e0: c6f2 a7bd 1892 10c1 b3be dcbd 719c 28c0
000003f0: c3a4 c5c0 e811 01bd 1a73 65bf 4f3a 1a3d
-0.4143754 0.012197791 -0.12594877 0.03224863 -0.1309774 -0.18878686 0.12080783 -0.40097743
-0.31013083 -0.11149128 -0.051057942 0.05483864 -0.30791327 0.05510835 -0.048036784 -0.30802193
-0.53024316 -0.060625974 -0.27116904 -0.25454652 0.05357903 -0.09989846 -0.047650076 -0.3867093
-0.5659334 -0.32967165 -0.2745801 -0.38826147 -0.074773386 -0.14252485 -0.30325264 -0.680966
-0.10081671 0.02343494 -0.08384645 -0.28867814 -0.24389662 -0.09200087 -0.161911 -0.41347283
-0.3977944 -0.3012642 0.054007065 0.0071477066 0.11579041 -0.045714602 0.0134457955 -0.0026218696
-0.38613614 -0.2838428 -0.1374851 -0.42093375 -0.07628879 -0.16475168 -0.09110965 -0.1217784
-0.13823186 -0.34465328 -0.045946874 -0.41997063 -0.24534623 0.06419436 -0.10795755 0.020811955
0.33129108 1.5134091 -2.8489697 -1.7162709 -0.6528227 -0.34761813 -1.4243342 0.73092383
-0.6240816 -0.030390397 -2.8291776 -1.1512538 -0.29882717 -0.108254775 -1.261152 0.6615642
-2.5175455 -1.3245461 -1.0705899 0.25244543 -0.3861856 -3.8210592 0.24288572 -0.21577594
-0.79467434 0.8272076 -8.027472 -2.193918 -3.5640018 -1.2670721 -1.5706238 -0.42150876
0.15230754 -3.2307136 -7.5855203 -12.38932 -0.6031663 -0.06553438 -0.6901145 -3.4937537
-3.7672327 -0.77816474 0.15513529 0.045752063 0.6051361 -0.06430089 -1.6242489 -0.9815083
-7.931828 -2.1959496 -5.105894 -2.9884 1.5389721 0.20749335 -4.2009406 -8.1287985
-2.2680862 0.13349551 -0.12282402 -5.5884523 0.755352 0.54224336 -0.20018089 -0.9429845
-0.34541133 -0.2676917 -0.1386164 -0.38911775 -0.7596703 -0.17113295 -0.29422334 -0.8394826
-0.3261589 0.07246925 -0.09272815 -0.12151782 -0.37427175 -0.016229182 -0.07450429 -0.070450865
-0.3531606 -0.33674055 -0.20680688 -0.12699915 -0.00951359 -0.43126407 -0.15870877 0.043081105
-0.40086454 -0.16515122 -0.03471605 -0.17247364 -0.09317009 -0.18113728 -0.33003372 -0.3138624
-0.08940672 -0.055738665 -0.15819804 -0.46049476 -0.11754067 -0.05045039 -0.11212631 -0.5102946
0.025381733 -0.43821037 -0.1656169 -0.12854508 -0.26248422 -0.078928396 -0.052801635 0.018553777
-0.24900301 -0.48561314 -0.33536267 -0.008453019 0.0462652 -0.15146862 -0.1932532 -0.280684
0.015532297 -0.19902505 -0.00033323618 -0.084719256 -0.4310368 -0.17638686 0.027467342 -0.021433566
-2.4849322 -0.015671724 0.1603533 -0.13038473 -3.561791 0.42332864 -0.2722778 0.0026598093
-8.679238 0.013760445 -0.25781676 0.0094761355 -0.2745535 -0.29668877 -8.210274 -0.9447394
-6.9208274 -3.274849 -1.1238514 -1.486728 -0.005129238 -3.0798154 -0.10690239 -1.602751
-4.5010476 -4.007697 -0.8063718 -5.9393277 -3.6457527 0.15665801 -3.2418518 -4.9369283
0.062128395 -0.09153582 -7.0093503 -5.4827466 -2.404192 0.03521229 0.010101419 -10.574139
-6.215122 -3.2906396 0.010111792 -0.22846107 -0.6152787 -0.0050699487 -0.09528792 -0.06212831
-3.2787194 -3.5836666 -7.829989 -6.5005155 -0.18720739 0.3154037 0.5282814 -5.506729
-0.08200602 -9.035667 -0.107785605 -2.6345484 -6.1763625 -0.031511217 -0.89628756 0.037653264

l2.bias f4 [32]
00000000: 9692 24bf 991c 58c0 a329 c1be 85a8 ad40
00000010: f311 1ebf 7668 45bf a9d4 d7bf 6ac6 ccbe
00000020: 0eaa f1be 7cf3 ed3c a1e3 d6be 84ec 2740
00000030: e804 82be 5849 9640 e94f c4be 2ac0 4dbf
00000040: cfdd 36be e24f ee3f 3a40 86be cbbb 84bf
00000050: fe0e cabe 0ce4 6fbf 21b7 53be 006c c7be
00000060: 13a0 4040 521f bfbe 5ba6 eabe 2fa7 d6bf
00000070: 4501 49c0 ede2 0abf bdd5 f7be 8cfb 27c0
-0.6428617 -3.3767455 -0.3772708 5.426821 -0.6174614 -0.7711252 -1.6861774 -0.39995128
-0.47200054 0.029046766 -0.41970542 2.6238108 -0.25394368 4.696453 -0.38342217 -0.80371344
-0.17858051 1.8618128 -0.26220876 -1.036981 -0.39464563 -0.93707347 -0.20675327 -0.38949585
3.0097702 -0.37328583 -0.45830044 -1.676977 -3.1407025 -0.5425251 -0.48405257 -2.6247282

l3.weight f4 [10, 32]
00000000: ce85 943e 6872 ff3e ade4 803e cc8c 8740
00000010: f8ad c5be 7587 eb3f a54d 4b3f f101 1fc0
00000020: 136c a7be 03ac dabe 2109 7dbe e5a4 26c0
00000030: f1aa 9b3e 634c 1c3f bcde 27bd f63a 25bf
00000040: b0ec 8a3c ae9a e6c0 f93b 96bd 8d1e 0dbe
00000050: 0187 d2bd 35ba 41c0 55e8 bebd 8365 1d3f
00000060: 14dc 8a40 d15b 5cc0 d531 b13e 2122 ab3e
00000070: 5457 423f 6127 86bc 1510 c23e 132a 72bd
00000080: 99ec 233e dbb1 3a3f ca51 d33d c4af 5d40
00000090: da89 543f 4de3 81c0 ddde bdbf 5b13 253f
000000a0: 4562 233e 1185 d8be 8981 093e 00f5 f0c0
000000b0: b165 29be f1bd 5fbf 44f8 b2be 3a86 35c0
000000c0: f09f 33bc c4ea 8a3f 0277 643e 2301 9d3d
000000d0: c5b2 1abe 0cac e4bf d3b8 6d3e 3152 96be
000000e0: f8b1 fa40 0e50 06c0 5a3c a3bd a39e b7be
000000f0: b5cb 203f e0ed 823c a9d7 943e 1141 e3bd
00000100: 1a4e b1bd 5d17 9fbe 8835 683e b3d2 8040
00000110: ddc5 a9bf a70b 3740 2c15 093f d81d 61c0
00000120: 933a 1c3e 0e2c d9be 6160 1bbe 1f48 6bc0
00000130: 9dc9 29be e01c 9d40 ba15 8fbe e8fe 3340
00000140: 1abc 983d 496f 68bf 4955 b4be 852b d9bd
00000150: 7d81 c4bd d8ac d1bf 5673 853e f66b 773b
00000160: b039 8ec0 d613 77c0 1127 013e fc3f 0540
00000170: 5b3a 4e3f 4329 3fbe a6a9 18be 6855 4bbb
00000180: 4f72 2f3d 73f2 0ec0 5c2d 58bd 48b2 8b40
00000190: cf22 07c0 cb1c 1e40 196e aa3e 0bd8 1d40
000001a0: c845 9a3c 887e d7be 8535 b3bd b0d3 8abf
000001b0: d786 54be d074 2140 0680 f1bd 552d c4bf
000001c0: b642 f93d 153c 98c0 4bb9 873d 91ca 963c
000001d0: 17a2 123e 1177 46bf e294 aa3e f0d4 e0be
000001e0: 61cf 96bf eef7 c9c0 ea2d 98be 3127 3440
000001f0: 08f1 babe 2ee5 69bd 19c4 4c3e 9ecc e2bc
00000200: a73c 8fbe 6e2d 09be 93eb 18bf 3f79 2c3f
00000210: 8503 23c0 e6e7 a43e dbd1 663e 2813 2ac0
00000220: affd 693e ef65 dcbe 4c1f 8b3d d816 0fc0
00000230: 942f 2bbe 148a 9340 e21f 203e 9b12 09c0
00000240: d10a 11be 793d dac0 32bd 3d3e 62e8 423e
00000250: 5cc1 373d dfaa 99c0 5386 dabd 47f3 a73e
00000260: da0e 1f40 2e8b fbbf 5fb4 34be 5889 d440
00000270: 9e44 a9be f779 ea3d e01d 633c 1aae 743e
00000280: 7fdd 96be 63be debf a511 a1be dde8 e13f
00000290: b3f8 87bf dcd2 25bf 571b 5040 2678 913f
000002a0: 0eed 713e 5b95 dabe 9e55 94bc 2a7c e7be
000002b0: f0a2 89bd 5684 dc3e 6fe7 63bd f145 4840
000002c0: 2235 99bc f21a aec0 2c1e 9b3d ce47 8a3e
000002d0: 905a 223d b749 87bf 5d91 8dbe d440 343e
000002e0: 5d27 d340 eedb 32bf b27d ba3e 43b0 0c3f
000002f0: e562 acbc 90a9 3b3f 7aba 163e 4b7e c6bd
00000300: 7a27 b7be e0ac 0740 701b 02bf 42c6 df40
00000310: f05f bc3f e1d4 363e bc2c 3a40 61f4 a43f
00000320: 9643 ea3d 6c05 ddbe bafb e93d d37d 0640
00000330: 1b2d 81be 516c 9fc0 c9b4 5dbe b359 d1bf
00000340: f823 cfbd 85a7 a2c0 c77d 2f3e 6248 84bd
00000350: 6d8e 22be 702e 80c0 2566 93be 9c5b 6e3d
00000360: 4eb8 4f40 21ff 383d eab6 a13d 6dc6 0940
00000370: eea2 8f3d 620c 8cbe c32b b53e a6e5 54bd
00000380: b84e 653e 254d ddbf 8246 24be 4517 13bd
00000390: 6a50 99bf 8e3a 3ac0 5d85 21c0 9782 cec0
000003a0: e1f6 9e3e ce3f d8be 0fa3 abbd a016 48c0
000003b0: 9592 2cbe 503d f740 82c2 8bbe 8580 1dc0
000003c0: 683b 55be d424 c5c0 f0ab dd3e 464e 13bd
000003d0: e0df 92bb 0a7e 6140 76cb 993e e84f 67bc
000003e0: d422 a03f 7af0 42c0 7d80 43be 28d7 1b3f
000003f0: e55c b3bf db0a 2abe ebbe f93d de98 13be
0.29008335 0.49891973 0.25174466 4.235937 -0.3860929 1.8400713 0.7941535 -2.4844935
-0.32699642 -0.4270936 -0.24710514 -2.6038144 0.30403855 0.61054057 -0.0409839 -0.6454309
0.016958565 -7.206382 -0.073356576 -0.13781185 -0.10279656 -3.0269902 -0.093216576 0.6148302
4.339365 -3.443104 0.3460833 0.33424476 0.759145 -0.0163762 0.37902895 -0.059122156
0.16008224 0.72927636 0.103183344 3.463853 0.83022845 -4.0589967 -1.4833637 0.6448266
0.15955456 -0.42289022 0.1342832 -7.529907 -0.16542698 -0.873992 -0.34955037 -2.8363175
-0.010963425 1.0852895 0.22311023 0.076662324 -0.15107258 -1.7865005 0.23215036 -0.29359582
7.8342247 -2.0986362 -0.079704955 -0.35863218 0.6281083 0.015982568 0.29070786 -0.11096395
-0.08657475 -0.31072512 0.2267667 4.02572 -1.3263508 2.8600862 0.5354793 -3.5174465
0.1525672 -0.42416424 -0.15173484 -3.676277 -0.16580816 4.909775 -0.27946264 2.8124332
0.074577525 -0.9079481 -0.35221317 -0.10604004 -0.095950104 -1.6380873 0.26064557 0.0037753559
-4.444542 -3.8605857 0.12612559 2.0820303 0.80557793 -0.18668084 -0.14908466 -0.0031026248
0.042833623 -2.233548 -0.052777633 4.365513 -2.1114995 2.4705074 0.33287123 2.4663112
0.018832102 -0.42088723 -0.087504424 -1.0845852 -0.20754562 2.5227547 -0.11791997 -1.5326334
0.12170927 -4.757334 0.06627139 0.018407138 0.14319645 -0.7752543 0.33316714 -0.43912458
-1.1782037 -6.311515 -0.2972253 2.814892 -0.36512017 -0.05710333 0.1999668 -0.02768546
-0.27975962 -0.13396236 -0.5973446 0.67372507 -2.5470898 0.32208174 0.22540991 -2.6574192
0.22850679 -0.4304652 0.06793079 -2.2357693 -0.16717368 4.6106052 0.15637162 -2.1417606
-0.14164282 -6.820004 0.18529204 0.1903396 0.044862136 -4.8021083 -0.106701516 0.32802793
2.4852815 -1.9651849 -0.17646931 6.6417656 -0.33060163 0.11449044 0.013862103 0.2389454
-0.29465863 -1.7401851 -0.31458774 1.7649189 -1.0622772 -0.6477487 3.2516687 1.1364791
0.23625585 -0.42692074 -0.018107232 -0.45211917 -0.06720531 0.43069714 -0.055640634 3.129269
-0.018702094 -5.440789 0.07574114 0.27007908 0.03963715 -1.0569371 -0.27649966 0.17602855
6.598555 -0.69866836 0.36424023 0.54956454 -0.02104325 0.73305607 0.14719573 -0.09692057
-0.35772306 2.1199265 -0.50823116 6.9929514 1.4716778 0.17854644 2.9089804 1.2887079
0.11438672 -0.431682 0.11424966 2.1014297 -0.25229725 -4.981972 -0.21650995 -1.6355499
-0.10114282 -5.082949 0.17137824 -0.064591184 -0.15874644 -4.0056686 -0.28788868 0.058192834
3.245624 0.045165185 0.07896216 2.152736 0.07013498 -0.27353197 0.3538495 -0.051976822
0.2239331 -1.7289168 -0.16042522 -0.035910863 -1.1977665 -2.909824 -2.5237648 -6.453441
0.3104773 -0.4223618 -0.0838071 -3.126381 -0.16852792 7.7262344 -0.27296835 -2.4609692
-0.20823443 -6.1607456 0.4329524 -0.03596332 -0.0044822544 3.5233178 0.3003804 -0.014118172
1.2510629 -3.0459275 -0.19091983 0.6087518 -1.4012724 -0.16605704 0.12194618 -0.14413783

l3.bias f4 [10]
00000000: f6ee 19be 176c 0dbe 1d98 30be 5436 02be
00000010: 590f 1abe d4a1 20be 6d12 14be 5f6f dfbd
00000020: db68 22be bb4b 33be
-0.15032563 -0.13810764 -0.17245527 -0.12716037 -0.15044917 -0.15686733 -0.14460154 -0.10909914
-0.15860312 -0.17509358
