codes/DDPG/runsactor.pth (torch, 491051 bytes, 5 tensors)

l1.weight f4 [400, 3]
0	0xbf0adb4b	-0.54240865
1	0xbe4c4581	-0.19948389
2	0x3cb8deec	0.022567235
3	0xbfd91575	-1.6959673
4	0xbdf400c5	-0.11914209
5	0xbc489e1a	-0.012244726
6	0xbe6bcee0	-0.23028135
7	0x3fe6eb70	1.80406
8	0x3ec49576	0.3839528
9	0xbf0ec827	-0.5577416
10	0x3fcf2541	1.6183244
11	0x3ec80906	0.39069384
12	0x3d3a60f4	0.045502618
13	0xbe97d142	-0.2965184
14	0x3e173e65	0.14769895
15	0xbee95b37	-0.45577404
16	0x3f9be139	1.2178108
17	0x3e981d63	0.2970992
18	0xbf4b4ce9	-0.7941423
19	0x3fb217b2	1.3913481
20	0x3f0ffcbf	0.56245035
21	0xbeba4c3e	-0.36386293
22	0xbfe034ea	-1.7516148
23	0xbea3bdfe	-0.3198089
24	0x3e63ca2a	0.22245088
25	0xbf10e2a9	-0.56595856
26	0x3eaea35e	0.34109014
27	0x3ea6bcf7	0.32566044
28	0xbf6afa14	-0.9178784
29	0x3f25803c	0.64648795
30	0xbe87a463	-0.26492605
31	0xbe4d8838	-0.20071495
32	0x3b1c9e86	0.0023898198
33	0xbd875a11	-0.06608976
34	0x3f83bbcb	1.0291685
35	0x3ea80d5b	0.3282269
36	0xbe3cc95c	-0.18436188
37	0x3f56d374	0.839164
38	0x3e2a6e9b	0.16643755
39	0x3e943950	0.28949976
40	0xc0255633	-2.5833862
41	0xbe9b335e	-0.30312628
42	0xbf569842	-0.83826077
43	0x3f97f8a5	1.1872755
44	0x3efc8c88	0.49325967
45	0x3ec66e62	0.3875609
46	0x3e654352	0.22388962
47	0x3d3991b4	0.04530497
48	0x3dfd5ee4	0.123716146
49	0x3db08892	0.08619799
50	0x39329c18	0.00017033552
51	0xbf6c5449	-0.9231611
52	0x3e9f3010	0.31091356
53	0x3ebefd99	0.37302855
54	0x3eb7149e	0.35757917
55	0x3f98c4d0	1.1935062
56	0x3ef54135	0.47901312
57	0xbf7e481f	-0.993288
58	0xbf369bf2	-0.71331704
59	0xbde58b48	-0.112082064
60	0xbf6193fe	-0.88116443
61	0xbf578702	-0.8419038
62	0xbe08c854	-0.13357669
63	0xbf9c6ae7	-1.2220124
64	0x3f678c66	0.90448606
65	0x3ee12bfc	0.4397887
66	0xbf91c0f7	-1.1387013
67	0x3e9e85a0	0.30961323
68	0x3bd32781	0.006443918
69	0x3e80a088	0.25122476
70	0xc015f732	-2.3432126
71	0xbe935b5d	-0.28780642
72	0xbf41cf1a	-0.75706637
73	0xbfc2876f	-1.5197581
74	0xbeb7c0f9	-0.35889414
75	0xbf90a1cb	-1.1299375
76	0xbf4306f9	-0.76182514
77	0xbe2bb722	-0.16769078
78	0xbe9d4e4d	-0.307238
79	0x3d11f598	0.035634607
80	0x3c1c19ce	0.009527637
81	0xbc925eec	-0.017867528
82	0xbe8370a2	-0.2567187
83	0xbc700b00	-0.01465106
84	0xbebfc72d	-0.37456647
85	0xbf4ad9d8	-0.79238653
86	0xbe5e5d40	-0.2171526
87	0xbef9bf93	-0.48778972
88	0xbfa44932	-1.2834837
89	0x3e4ddfd8	0.20104921
90	0xbf8008d8	-1.0002699
91	0xc00505c9	-2.078478
92	0xbf069f57	-0.52586883
93	0xbfa43bb4	-1.283072
94	0x3eca280e	0.39483684
95	0xbc8de8f5	-0.017322997
96	0xbe88fb70	-0.26754332
97	0xc00a76e1	-2.1635058
98	0x3f4a1f1a	0.7895371
99	0x3ec74851	0.3892236
100	0x3f190774	0.59777
101	0x3ed3de3d	0.41380492
102	0xbe31177d	-0.17294116
103	0x3fb4cfc2	1.4125903
104	0x3e8e4a97	0.27791283
105	0x3dd1c337	0.102423124
106	0x3fcc299a	1.5950196
107	0x3f08529d	0.5325106
108	0xbee9e87d	-0.45685187
109	0xbe450c8d	-0.19243069
110	0xbda66c14	-0.08126083
111	0x3a4732db	0.00075988256
112	0x3ded8d15	0.11599175
113	0xbc245991	-0.01003112
114	0xbe97fa51	-0.29683164
115	0x3f8a923b	1.0825876
116	0x3e9f676b	0.3113359
117	0xbf46c95a	-0.7765099
118	0x3f5c1fc8	0.85985994
119	0x3dd9ab51	0.10628379
120	0x3f158ead	0.5842083
121	0xbf5e2de4	-0.86788774
122	0x3eb343e7	0.35012743
123	0xbeafdf43	-0.34350023
124	0x3fea88aa	1.8322957
125	0x3c9992cc	0.018746756
126	0xbf5115b2	-0.8167373
127	0xbfd5dbfe	-1.6707761
128	0xbecc0857	-0.39850113
129	0xbf90e688	-1.1320353
130	0xbef4751b	-0.47745594
131	0x3e8ce44f	0.27517936
132	0x3d5670c4	0.052353635
133	0xbc2c07e5	-0.010499929
134	0x3b0cb25d	0.0021468617
135	0xbf1fa16e	-0.623557
136	0x3f824826	1.0178268
137	0x3ee47e71	0.44627717
138	0x3e7bc839	0.24588098
139	0x3c9a0399	0.018800544
140	0xbe4e4352	-0.20142868
141	0xbf318c75	-0.69354945
142	0xbfd4269e	-1.6574285
143	0xbebde3ad	-0.37087765
144	0xbf23247f	-0.63727564
145	0x3ff199d3	1.8875068
146	0x3edb16cd	0.42790833
147	0xbf7cc726	-0.98741376
148	0xbfe1011c	-1.7578464
149	0xbef07354	-0.46962988
150	0xbf1af570	-0.6053076
151	0x3d1b202c	0.03787248
152	0x3c904885	0.017612705
153	0xbf310adc	-0.69157195
154	0x3f59bbb8	0.8505206
155	0x3ec501f2	0.38478047
156	0x3dd2c309	0.10291106
157	0xbf7c43f7	-0.98541206
158	0x3edeabc0	0.4349041
159	0xbf0e082d	-0.55481225
160	0x3fa826e0	1.3136864
161	0x3dc3ddba	0.09563775
162	0xbfac5005	-1.346192
163	0xbee3365b	-0.44377407
164	0xbe2e1d9f	-0.17003487
165	0x3bfbb29e	0.007681205
166	0xbf8eaa79	-1.1145774
167	0xbe770663	-0.2412353
168	0x3e899fc5	0.26879707
169	0x3f890bfc	1.0706782
170	0x3d89911d	0.06717131
171	0xbea01d17	-0.31272194
172	0x3e47081c	0.19436687
173	0xbb4483f3	-0.0029985874
174	0xbfa01da0	-1.2509041
175	0x3d6fc0ab	0.058533352
176	0x3dbc3bc2	0.091910854
177	0x3dd2dd3c	0.10296103
178	0x3fcd6c94	1.604876
179	0xbcd43182	-0.025902513
180	0xbf60f057	-0.8786673
181	0x3f64cb55	0.8937276
182	0x3eadcea1	0.33946708
183	0x3ea89f61	0.32934096
184	0x3fe20432	1.765753
185	0xbe4596ef	-0.19295858
186	0xbf03e80b	-0.51525944
187	0xc0048eff	-2.0712278
188	0x3dda35b2	0.10654773
189	0xbe126774	-0.14297277
190	0xbf20a788	-0.6275563
191	0x3f3d2c0d	0.7389534
192	0xbf36f31d	-0.7146471
193	0x3fd250e0	1.6430931
194	0x3edd8473	0.43265113
195	0xbf22d6bd	-0.63608915
196	0x3f937aea	1.1521885
197	0x3ea0983a	0.3136614
198	0xbe397bc2	-0.18113616
199	0x3d5e4f80	0.054275036
200	0x3d13a590	0.036046565
201	0xbef5ce56	-0.48008984
202	0x3ef060a0	0.4694872
203	0xbc860bb8	-0.01636301
204	0xbf5bba88	-0.858315
205	0xbfb4dd48	-1.413003
206	0x3ddde019	0.10833759
207	0xbf5b83c1	-0.85747916
208	0xbfdafae4	-1.7107816
209	0xbec5e117	-0.38648292
210	0x3e9bba06	0.30415362
211	0xbd736618	-0.059423536
212	0xbea1d6c6	-0.31609172
213	0x3e4e0968	0.20120776
214	0xbf22b6e7	-0.63560337
215	0x3b7a46be	0.0038189138
216	0xbf9ea627	-1.2394456
217	0x3d95e12c	0.07318339
218	0x3ddb1cbd	0.10698841
219	0xbed1f734	-0.41008914
220	0x3a793ad9	0.0009507365
221	0xbb8924f5	-0.004185314
222	0xbee75c50	-0.45187616
223	0x3f98bf53	1.1933388
224	0x3e8a4ed5	0.2701327
225	0x3ec77f12	0.38964134
226	0xbf1513e4	-0.58233476
227	0xbbcfdad3	-0.0063432246
228	0x3edb6b72	0.42855412
229	0x3e9b1f88	0.30297494
230	0xbf0fe9d7	-0.56216186
231	0xbf5e5d7e	-0.8686141
232	0x3f8d0cb8	1.1019506
233	0x3edb72a1	0.42860892
234	0xbeda3645	-0.4261953
235	0x3fc8e6f8	1.5695486
236	0xbd23f0b5	-0.040024478
237	0xbf80e8ab	-1.0071005
238	0xbe905142	-0.28186995
239	0x3c869fc5	0.016433606
240	0x3d8c79ff	0.068592064
241	0x3e192d12	0.14958599
242	0xbe5e92b6	-0.21735653
243	0xbe307830	-0.17233348
244	0xc0027ef2	-2.0389981
245	0xbea1d200	-0.3160553
246	0xbf88d2d3	-1.0689338
247	0xbf4a4070	-0.79004574
248	0xbd882cab	-0.06649145
249	0x3e994fb6	0.29943627
250	0x3f855c05	1.0418707
251	0x3e9ef4b5	0.31046072
252	0xbfc170ed	-1.5112587
253	0x3eebfab8	0.4608972
254	0xba80f74c	-0.0009839325
255	0xbf5ef48d	-0.87091905

l1.bias f4 [400]
0	0xbf0aeabe	-0.5426444
1	0xbd66145a	-0.056171753
2	0xbf1028c9	-0.56312233
3	0xbe66b9d0	-0.2253182
4	0xbf17a230	-0.59231853
5	0xbe2d920d	-0.16950245
6	0xbec57422	-0.38565165
7	0xbebccc11	-0.3687444
8	0xbd7db38c	-0.061938807
9	0xbdcc265f	-0.09968256
10	0xbed8b99d	-0.42329112
11	0xbe82e1d2	-0.25562912
12	0xbe658f29	-0.22417893
13	0xbebad5fb	-0.3649138
14	0xbe3f6cb2	-0.18693808
15	0xbf50e6a6	-0.8160194
16	0xbe2db951	-0.16965224
17	0x3ede5283	0.43422326
18	0xbf766280	-0.9624405
19	0x3dc23746	0.09483199
20	0xbd585099	-0.05281124
21	0xbf163a51	-0.58682734
22	0xbcd9b90b	-0.026577493
23	0xbe6e59a1	-0.23276378
24	0x3dd2bcfa	0.10289951
25	0xbd5fbefe	-0.054625504
26	0xbedf48af	-0.4361014
27	0xbed10001	-0.40820315
28	0xbea3b30d	-0.31972542
29	0xbe0a88c1	-0.1352873
30	0x3e05d6f9	0.13070287
31	0x3d54c762	0.05194796
32	0x3ebd1888	0.36932778
33	0xbf89f574	-1.0778031
34	0xbef79e59	-0.48362997
35	0xbf763dd9	-0.9618812
36	0xbe4e5b52	-0.20152023
37	0xbe47c233	-0.19507675
38	0xbe7975b3	-0.24361305
39	0x3e880ceb	0.26572356
40	0xbf306849	-0.68909127
41	0xbd5b4dad	-0.053540874
42	0x3db57288	0.08859736
43	0x3ec1b62d	0.37834302
44	0xbe1fdd28	-0.15611708
45	0xbe518d2b	-0.20464008
46	0xbea4af8a	-0.32165176
47	0xbd407c25	-0.046993393
48	0xbe885a90	-0.26631594
49	0x3e6d92ac	0.23200482
50	0xbf663dc0	-0.89937973
51	0xbd8f2e0e	-0.06991206
52	0xbe44e290	-0.19227052
53	0xbe227c2a	-0.15867677
54	0x3ec4f954	0.38471472
55	0x3eaadcf6	0.33371705
56	0xbefb4522	-0.49076182
57	0xbed2751f	-0.4110498
58	0x3b8f89f9	0.0043804613
59	0xbf188fc8	-0.5959439
60	0x3dc8f7a4	0.09812859
61	0xbca5a109	-0.02021839
62	0x3f1180e3	0.5683729
63	0xbe86fff1	-0.26367143
64	0xbdbad87f	-0.091233246
65	0x3ad7fb5e	0.0016478112
66	0xbf05c7e8	-0.5225816
67	0xbf293e75	-0.66110927
68	0xbd8ce6b4	-0.06879941
69	0x3cec264e	0.028826859
70	0xbec68a20	-0.38777256
71	0xbf5734a2	-0.84064686
72	0x3eb3f7da	0.35150033
73	0xbee34013	-0.44384822
74	0xbe76bc58	-0.24095285
75	0xbf681165	-0.9065154
76	0xbebcfea5	-0.36913028
77	0xbdfd0638	-0.12354702
78	0xbf45760a	-0.7713324
79	0x3bf1a746	0.007374677
80	0xbf69736c	-0.91191745
81	0xbf28458a	-0.6573111
82	0x3e5df8e5	0.21676977
83	0xbf6d0590	-0.9258661
84	0x3dcf2c27	0.10115843
85	0x3ddc144c	0.10746059
86	0xbec6f4a5	-0.38858524
87	0xbead560b	-0.33854708
88	0xbef7527a	-0.48305112
89	0xbf57c659	-0.8428703
90	0xbe482828	-0.19546568
91	0xbdf8cd96	-0.121485874
92	0xbf06e09f	-0.52686495
93	0xbec2edc5	-0.3807203
94	0xbe3fef45	-0.18743618
95	0xbf252667	-0.6451172
96	0xbda58698	-0.08082312
97	0xbe55ba3f	-0.20871828
98	0xbed740eb	-0.42041716
99	0xbd5c3b11	-0.053767268
100	0x3e086a4f	0.13321804
101	0xbe0486c7	-0.12942038
102	0x3d9932d0	0.07480395
103	0xbf1034ba	-0.56330454
104	0xbe4b3505	-0.19844444
105	0xbf07086d	-0.5274723
106	0xbf432dcd	-0.7624176
107	0xbedba4d1	-0.42899182
108	0x3dbe2ead	0.092862464
109	0xbf145640	-0.5794411
110	0xbf49c4c7	-0.78815883
111	0xbf9d72b2	-1.2300627
112	0xbf113b4a	-0.5673109
113	0xbd505ec5	-0.05087163
114	0x3d839392	0.06424631
115	0xbe3e3c4b	-0.18577687
116	0x3d881070	0.0664376
117	0xbeac60e2	-0.33667666
118	0xbf01693d	-0.50551206
119	0xbe7410d7	-0.23834549
120	0xbf345d62	-0.7045499
121	0xbf2bf962	-0.671774
122	0xbebb9993	-0.36640605
123	0xbdf06efa	-0.11739917
124	0xbe83d77c	-0.2575034
125	0xbee02b5b	-0.43783078
126	0x3caee437	0.021349056
127	0x3d2320d6	0.039826237
128	0x3d7c4dcc	0.06159763
129	0xbeff968a	-0.4991954
130	0xbec4bb03	-0.3842393
131	0xbf5d836d	-0.86528665
132	0xbe82bed8	-0.25536227
133	0xbd5795ec	-0.05263321
134	0xbf0088ff	-0.5020904
135	0xbeeebfac	-0.4663061
136	0xbebcfa71	-0.36909822
137	0xbf2cb032	-0.6745635
138	0xbf4b728e	-0.7947167
139	0x3d99bb55	0.07506434
140	0xbe682dd6	-0.22673735
141	0xbedc26f7	-0.42998478
142	0xbf2083d5	-0.6270116
143	0xbe9e94f3	-0.30973014
144	0xbf2aa6cc	-0.6666076
145	0xbe320f8c	-0.17388743
146	0xbf12b35d	-0.57304937
147	0x3d8b68b0	0.06807077
148	0xbeb959ec	-0.36201417
149	0x3f330b9f	0.6993961
150	0xbe338726	-0.17532024
151	0xbf16392c	-0.5868099
152	0xbe9a2596	-0.301068
153	0x3e9f0924	0.3106166
154	0x3f320378	0.6953654
155	0xbe4204a1	-0.18947078
156	0xbec8cea5	-0.39220157
157	0xbf0f6345	-0.5601085
158	0x3d94c243	0.07263615
159	0x3dbd79de	0.0925176
160	0xbe140b5f	-0.14457463
161	0xbe635378	-0.2219981
162	0xbe45495b	-0.19266264
163	0x3edeaf8e	0.43493313
164	0xbe47fa6d	-0.19529124
165	0xbf91a70c	-1.1379104
166	0xbf853949	-1.0408107
167	0xbf3f1dc5	-0.746548
168	0x3e01030d	0.1259882
169	0xbec1ca9c	-0.3784989
170	0xbefc387f	-0.49261853
171	0xbf0d0a6f	-0.55094045
172	0xbf611a71	-0.8793097
173	0xbeb2397b	-0.3480948
174	0x3e6ead64	0.23308331
175	0xbe484083	-0.1955586
176	0xbebd88ec	-0.37018526
177	0x3c162c10	0.009165779
178	0xbe029bfd	-0.12754817
179	0xbef86000	-0.48510742
180	0x3c3a91f2	0.011387335
181	0xbede1081	-0.43371966
182	0xbdc0801c	-0.09399435
183	0xbdf7aed8	-0.12093896
184	0xbf138f9a	-0.57640994
185	0xbea5dce9	-0.32395104
186	0xbe60ae7a	-0.21941558
187	0x3def4a87	0.11684137
188	0xbf4bfca5	-0.7968238
189	0xbe8b782c	-0.2724012
190	0xbf06f94e	-0.5272416
191	0xbf479fa4	-0.7797797
192	0xbf3467b7	-0.70470756
193	0xbee7f3d3	-0.4530321
194	0xbf4c4ad5	-0.79801685
195	0xbe4dc1ba	-0.20093432
196	0xbf26f756	-0.65221155
197	0xbe8ebc87	-0.2787821
198	0xbe8b3737	-0.27190563
199	0xbf10f64b	-0.56625813
200	0xbe481c71	-0.195421
201	0xbf0322c2	-0.5122491
202	0xbf2d1904	-0.67616296
203	0xbe842fef	-0.2581782
204	0xbe05fca7	-0.1308466
205	0xbf3eb245	-0.7449077
206	0xbf288a6c	-0.65836215
207	0xbf41e46f	-0.75739187
208	0xbf4ff515	-0.8123334
209	0xbe59635e	-0.21229312
210	0xbeb879b8	-0.36030364
211	0xbe2fbcbd	-0.17161842
212	0xbf4c1457	-0.79718536
213	0xbf44ebe2	-0.7692243
214	0xbd93c7bb	-0.0721583
215	0xbc506265	-0.012718772
216	0xbed46b2c	-0.41488016
217	0xbf2c1f86	-0.672356
218	0xbee31d12	-0.44358116
219	0xbe90ecb8	-0.28305602
220	0x3e76dfa0	0.24108744
221	0xbe9379a4	-0.28803742
222	0xbc3b0f38	-0.011417203
223	0x3e9cafe3	0.3060294
224	0xbf2eaa7b	-0.6822888
225	0xbcea7abb	-0.028622976
226	0xbe902857	-0.28155777
227	0xbf1a2eb3	-0.6022751
228	0xbe8f0d5f	-0.2793989
229	0xbf523ad4	-0.82121015
230	0xbe54845c	-0.20753616
231	0xbf32f863	-0.6991026
232	0xbea508b7	-0.3223321
233	0x3e85cfd3	0.2613512
234	0xbf29d1cb	-0.66335744
235	0xbdf4cb5d	-0.11952851
236	0xbe2ca531	-0.1685989
237	0xbe24cf8c	-0.16094798
238	0x3eb3c4a5	0.35110965
239	0xbd4ac411	-0.04950339
240	0xbefc9fad	-0.49340573
241	0xbf4431e7	-0.76638645
242	0xbf130bc7	-0.57439846
243	0xbf151a28	-0.58243036
244	0xbe152e11	-0.14568354
245	0xbf00d752	-0.5032855
246	0xbeaaf30a	-0.3338855
247	0xbe67e857	-0.22647224
248	0xbedb7d95	-0.4286925
249	0xbf223b5b	-0.6337182
250	0xbf4cc7d8	-0.7999244
251	0xbd953011	-0.072845586
252	0xbedc2511	-0.4299703
253	0x3de73b81	0.11290646
254	0xbd58b9f0	-0.0529117
255	0xbf40866a	-0.752051

l2.weight f4 [300, 400]
0	0x3cbfb289	0.023400562
1	0xbcb17e19	-0.021666573
2	0xbc45a582	-0.012063386
3	0xbc8587c1	-0.016300084
4	0xb90f3390	-0.00013656751
5	0x3bd55f25	0.0065115863
6	0x3b916300	0.0044368505
7	0xbd1def82	-0.03855849
8	0x3c9483f8	0.018129334
9	0xbcbb9d25	-0.02290208
10	0x3c0424aa	0.008065382
11	0x3ccc1e2c	0.02491673
12	0xbd66ce8f	-0.056349333
13	0xbcf757c6	-0.03019322
14	0xbcab2775	-0.020892838
15	0xbd12ac1d	-0.03580867
16	0xbcd34286	-0.025788557
17	0x3bd00963	0.0063487752
18	0x3c1074cd	0.00881691
19	0xbd4e8a79	-0.050425027
20	0x3d1a0b70	0.037608564
21	0x3cbe92fe	0.02326345
22	0xbd6a25d2	-0.057164975
23	0xbb535644	-0.0032247463
24	0x3cf14ac6	0.0294546
25	0x3d1ba3c7	0.037997987
26	0xbccfd99a	-0.025372315
27	0x3cd8a172	0.02644417
28	0xbcf8f6a8	-0.030391052
29	0x3d0e708c	0.0347753
30	0xbd4f30bd	-0.05058359
31	0x3b4c50a7	0.0031176002
32	0x3be17791	0.0068807085
33	0x3cd47182	0.025933031
34	0x3c558cd4	0.013034064
35	0xbd8d71d4	-0.069064766
36	0xbcde68e7	-0.02714963
37	0x3c2152f3	0.009846437
38	0x3c964819	0.018344926
39	0xbbae7bad	-0.005324802
40	0xbd2d2f38	-0.04228136
41	0xbd4507a9	-0.04810301
42	0x3cdd86ce	0.027041819
43	0xbd85956a	-0.06522639
44	0x3d0febf6	0.03513714
45	0xbb294156	-0.0025826297
46	0x3bf5a1e7	0.007496107
47	0xbd0d7f9c	-0.034545526
48	0xbc019eb8	-0.007911377
49	0xb9459ae9	-0.00018845093
50	0xbce9a03b	-0.028518787
51	0x3b127f41	0.0022353681
52	0xbbe6f06a	-0.0070477026
53	0xbb1f60a2	-0.0024319072
54	0xbb696fa2	-0.0035619517
55	0x3b798a84	0.0038076947
56	0xbd507a23	-0.05089773
57	0x3ab6afa7	0.0013937847
58	0x3b80fa12	0.0039360607
59	0xbd3644b3	-0.04449911
60	0x3cd3a919	0.025837468
61	0xbd4d67c9	-0.050147805
62	0xbd1550cc	-0.036454007
63	0xbc763a74	-0.015028585
64	0xbd113434	-0.035450175
65	0x3ab4c4d5	0.0013791571
66	0xbd00d57d	-0.0314536
67	0xbd9b1cf1	-0.075738795
68	0x3c834ae7	0.016026927
69	0xbd9566a4	-0.07294968
70	0xbc851156	-0.016243618
71	0xbd25a37c	-0.040439114
72	0xbcffee7e	-0.031241652
73	0xbd5e2aa9	-0.054239903
74	0x3cb83076	0.022484045
75	0xbcf7ab84	-0.030233152
76	0xbce2ce78	-0.027686343
77	0x3cd6c1b7	0.026215417
78	0xbd372e95	-0.04472216
79	0xbc520212	-0.012817876
80	0xbcb0e7bf	-0.02159488
81	0x3cc657c5	0.024211774
82	0x3cb3e894	0.021961488
83	0xbda15739	-0.078779645
84	0xbc2d6e51	-0.0105853835
85	0x3a952d4c	0.0011381297
86	0x3b328d49	0.0027244857
87	0x3d175114	0.036942557
88	0xbd0796d1	-0.033102814
89	0xbad3be40	-0.0016154721
90	0xbd0975d6	-0.033559643
91	0x3c8bb1f0	0.01705262
92	0xbd037f99	-0.03210411
93	0xbcaac084	-0.020843752
94	0xbc33bce2	-0.010970326
95	0x3cdf1d57	0.02723567
96	0xbcbf6e5c	-0.023368053
97	0xbce83a90	-0.028348237
98	0xbd2ef04b	-0.04270963
99	0xbdafce5d	-0.085842825
100	0xbd620957	-0.05518469
101	0xbd2f558e	-0.0428062
102	0xbd34e4cb	-0.044163506
103	0xbc849209	-0.016182916
104	0xbcb9dec2	-0.022689227
105	0xbd24485b	-0.040108066
106	0xbd9d3710	-0.07676518
107	0xbcb44cf3	-0.022009348
108	0xbd672ebe	-0.05644106
109	0xbb7da8d0	-0.0038705356
110	0xbdb724a2	-0.08942534
111	0x3c8339ce	0.016018774
112	0xbd1f92ba	-0.03895829
113	0x3b352130	0.002763819
114	0xbb04c8fe	-0.0020261402
115	0xbd8c7eed	-0.06860147
116	0xbd1961f0	-0.037446916
117	0x3b7851c7	0.003789054
118	0xbce01eae	-0.02735838
119	0xbc4651b5	-0.012104441
120	0x3cfa0983	0.030522114
121	0xbd8bdde5	-0.068294324
122	0xbd395bcb	-0.045253556
123	0x3c26ccf3	0.0101807
124	0x3d2cb524	0.042164937
125	0xbd277ae8	-0.040888697
126	0xbd227e0d	-0.039670993
127	0xbcb4d6ad	-0.022075022
128	0xbbd925c6	-0.0066268174
129	0x3d26abcb	0.04069118
130	0xbd226eba	-0.03965638
131	0xbbfc6036	-0.007701899
132	0xbc31b460	-0.010846227
133	0xbce452d7	-0.027871532
134	0xbd4648cc	-0.04840927
135	0xbd702f03	-0.058638584
136	0xbd3f0cd2	-0.046643086
137	0xbd80a758	-0.06281918
138	0xbb4afb64	-0.0030972594
139	0x3c49f7c6	0.01232714
140	0x3d11efa4	0.03562893
141	0xbd3ac51f	-0.045598146
142	0xbd5ba05a	-0.05361972
143	0xbbe87e76	-0.0070951534
144	0xbc826e42	-0.015921716
145	0x3d29b62a	0.04143349
146	0x3cd07f3a	0.025451291
147	0x3bd57cf2	0.006515139
148	0x3cf8ce30	0.030371755
149	0x3c319612	0.010839002
150	0x3ce8d075	0.028419713
151	0x3cec2706	0.028827202
152	0xbb9ddd15	-0.004817615
153	0xbc89deae	-0.016829815
154	0xbd697a4c	-0.057001397
155	0xbcd0a9e8	-0.025471643
156	0xbd01949f	-0.031635877
157	0x3cd3824e	0.02581897
158	0x3cfe03fe	0.031007763
159	0x3c8ac823	0.016941136
160	0x3d212acf	0.039347466
161	0x3c73b7fe	0.01487541
162	0xbd11da41	-0.035608534
163	0xbcb47463	-0.022028154
164	0xbc49e33c	-0.012322243
165	0xbc4fcb37	-0.012682728
166	0xbc4aabc9	-0.012370058
167	0xbd63fa78	-0.055658787
168	0xbb1a6307	-0.002355756
169	0xbd378fff	-0.04481506
170	0xbd16c9ec	-0.03681366
171	0x3c168222	0.0091862995
172	0xbcd3938a	-0.025827188
173	0xbc89343c	-0.01674854
174	0x3c9970a1	0.018730463
175	0x3c3fdceb	0.011710386
176	0xbd1b4b38	-0.03791353
177	0xba6804af	-0.00088507956
178	0xbc694127	-0.014236725
179	0x3c65dbcb	0.0140294535
180	0x3c699132	0.014255809
181	0xbd530cad	-0.05152576
182	0x3cc87ab8	0.02447258
183	0x3d0c3908	0.034234077
184	0xbd8cc34f	-0.0687319
185	0x3c0f42f5	0.008743991
186	0xbcd4656f	-0.025927274
187	0xbc81808d	-0.015808368
188	0xbd97234f	-0.073797815
189	0xbcf1d373	-0.029519772
190	0x3d19d801	0.037559513
191	0xbd34f5f9	-0.04417989
192	0x3c9bf014	0.019035377
193	0xbced1570	-0.028940886
194	0xbcf109d9	-0.029423641
195	0xbca78310	-0.020448238
196	0xbb7d58fd	-0.0038657777
197	0x3d1fa4a4	0.038975373
198	0xbd9fbe93	-0.07800021
199	0xbd0f0ca4	-0.034924164
200	0xbbe879dd	-0.0070946054
201	0xbd9e031a	-0.07715435
202	0xbd176a8a	-0.036966838
203	0xbc687943	-0.014189067
204	0x3d16c125	0.03680529
205	0xbd2e08e8	-0.042488962
206	0xbd71b4b9	-0.05901024
207	0xbc574a28	-0.013140239
208	0x3b1c61ed	0.002386208
209	0x3cacc675	0.021090725
210	0xbc3d41a9	-0.011551299
211	0xbb637033	-0.0034704327
212	0xbc4e412b	-0.012588779
213	0xbd2a95e1	-0.041646842
214	0x3cf48f70	0.029853553
215	0xbd149706	-0.03627684
216	0x3cacacb6	0.021078449
217	0x3c6cddd7	0.014457188
218	0xbd866028	-0.06561309
219	0xbb42dce6	-0.0029733717
220	0xbd3c0ff4	-0.04591365
221	0xbd1f98a3	-0.038963925
222	0xbcf3eabb	-0.029775014
223	0xbd1cd880	-0.038292408
224	0xbcf0e272	-0.029404853
225	0xbcd4d7f3	-0.025981879
226	0xbd836c84	-0.06417182
227	0xbc9009b7	-0.017582757
228	0xbdb33e90	-0.08752167
229	0xbd399a6e	-0.04531329
230	0xbc44efa9	-0.01202003
231	0xbcea42ea	-0.02859636
232	0xbaccea4d	-0.0015633792
233	0xbd2a9e19	-0.04165468
234	0xbd2b390e	-0.04180246
235	0x3d0997a2	0.033591874
236	0x3d24335d	0.040088046
237	0x3b34482b	0.0027508836
238	0xbd659367	-0.056048777
239	0x3b9e90e1	0.0048390483
240	0xbbe261c5	-0.0069086277
241	0xbd017120	-0.031602025
242	0xbd2903e6	-0.041263483
243	0xbd01d6b4	-0.031698897
244	0xbcfa3c6f	-0.030546395
245	0x3c8758a8	0.016521767
246	0xbc1ee773	-0.0096987365
247	0xbc7f4b18	-0.015581869
248	0xbc7c97e9	-0.015417078
249	0x3d0e0cd1	0.03468019
250	0xbd36093f	-0.04444241
251	0xba04bd5c	-0.0005063617
252	0xbcbea5d6	-0.023272436
253	0x3ce71b5e	0.028211292
254	0xbd22a8d7	-0.0397118
255	0x3bf41c00	0.007449627

l2.bias f4 [300]
0	0xbd0ef955	-0.03490575
1	0xbd27a854	-0.040932015
2	0xbd316b86	-0.043315433
3	0xbd3fde45	-0.046842832
4	0x3d6ab913	0.057305407
5	0xbd4850bc	-0.04890512
6	0x3dda9258	0.10672444
7	0xbddccd4e	-0.10781346
8	0xbebda1b8	-0.37037444
9	0xbf0279d0	-0.5096712
10	0xbd8098c0	-0.06279135
11	0xbd1321a9	-0.035920773
12	0xbe72d1b6	-0.23712811
13	0xbd7c737f	-0.061633583
14	0x3e84ffbd	0.25976363
15	0xbd6434b4	-0.055714324
16	0xbcf4c015	-0.029876748
17	0xbd2a6ef5	-0.041609723
18	0xbe1b0fd4	-0.15142757
19	0xbd8aee94	-0.067837864
20	0xbd85efb0	-0.065398574
21	0xbd8ddf91	-0.069274075
22	0xbe706d8e	-0.23479292
23	0xbecc707d	-0.39929572
24	0xbcf755ab	-0.030192217
25	0xbd62c15c	-0.055360183
26	0xbc87dfec	-0.016586266
27	0xbcd5398a	-0.026028413
28	0xbdbfe07e	-0.0936899
29	0xbdbcce3a	-0.09219022
30	0xbe7b2437	-0.24525534
31	0xbd1f309a	-0.03886471
32	0xbec428de	-0.3831243
33	0xbb53daac	-0.0032326384
34	0xbd47f2e1	-0.04881561
35	0xbce17d30	-0.027525514
36	0xbdaa389d	-0.083115794
37	0xbce48e98	-0.027900025
38	0xbdf2090d	-0.118181325
39	0xbcdb093a	-0.026737798
40	0x3d13144b	0.035908025
41	0xbce65a07	-0.0281191
42	0xbd5e19e7	-0.05422392
43	0xbd8e34a4	-0.06943634
44	0x3cd1219c	0.025528722
45	0xbdc10e3b	-0.09426542
46	0xbdf0e729	-0.1176284
47	0xbdeeed34	-0.11666337
48	0xbbdfcaaa	-0.0068295794
49	0xbd4bd103	-0.049759876
50	0xbd8f0838	-0.069839895
51	0xbbb2f0be	-0.0054608276
52	0xbda793a5	-0.08182458
53	0xbd7b759d	-0.06139146
54	0x3ee532fa	0.44765455
55	0xbd447c27	-0.047969963
56	0xbd40347a	-0.046925046
57	0xbc866562	-0.016405765
58	0xbd0dbd95	-0.034604628
59	0xbda2431b	-0.079229556
60	0xbdebc1db	-0.11511584
61	0xbd84045b	-0.06446143
62	0xbe05b656	-0.13057837
63	0xbcca5b59	-0.024701761
64	0xbd3f3373	-0.046679925
65	0x3f2b6833	0.6695587
66	0xbda2ab16	-0.07942788
67	0xbdd003dc	-0.10156986
68	0xbdb03709	-0.08604247
69	0xbda621e5	-0.081119336
70	0xbd698b63	-0.057017695
71	0xbd2ebe0f	-0.042661723
72	0xbd585cc2	-0.052822836
73	0x3b0c31d3	0.0021392002
74	0xbddaded2	-0.10687031
75	0xbda8dea4	-0.0824559
76	0xbd5f0617	-0.054449167
77	0xbd93c493	-0.07215228
78	0xbdd4c83c	-0.10389754
79	0xbda541f8	-0.08069223
80	0xbe776cb6	-0.24162564
81	0xbd289c72	-0.041164823
82	0xbe7d86e6	-0.24758491
83	0xbdbba26b	-0.09161838
84	0xbcdb15e8	-0.026743844
85	0xbd25a143	-0.040436994
86	0xbd5ebf74	-0.054381803
87	0x3c51d994	0.012808222
88	0xbcf2111c	-0.029549174
89	0xbd1b1190	-0.037858546
90	0xbd6ed12c	-0.05830495
91	0xbc8362ef	-0.016038386
92	0xbde989cf	-0.11403238
93	0xbd3abcf5	-0.04559036
94	0xbe5b595d	-0.21420808
95	0xbdc828db	-0.097734176
96	0xba57568f	-0.00082144974
97	0xbcd07d4f	-0.025450377
98	0xbdab6699	-0.08369178
99	0xbddc599b	-0.107592784
100	0xbd5f41ab	-0.054505985
101	0x3d5dd7cd	0.05416088
102	0xbd836b92	-0.06417002
103	0xbd2d534e	-0.042315774
104	0xbdae7f16	-0.085203335
105	0xbd931db8	-0.07183403
106	0xbcb54f7b	-0.022132626
107	0xbc875f45	-0.01652492
108	0xbf132b24	-0.574877
109	0xbda0e57f	-0.07856273
110	0xbcb141db	-0.021637848
111	0x3b1fb632	0.0024370071
112	0xbd784f4b	-0.060622495
113	0xbddf0ad5	-0.10890738
114	0xbd73f547	-0.059560087
115	0xbd4030e8	-0.04692164
116	0xbd9c6b73	-0.07637682
117	0xbd654526	-0.05597415
118	0xbd97702d	-0.07394443
119	0xbccc89a1	-0.02496797
120	0xbd09b3d3	-0.03361876
121	0xbc8416d1	-0.016124161
122	0xbd553dff	-0.052061077
123	0xbe3867fb	-0.18008415
124	0xbce61903	-0.028088098
125	0xbd91c4f2	-0.071176425
126	0x3c8bade7	0.017050697
127	0xbd3a35bb	-0.045461398
128	0xbf210549	-0.6289869
129	0xbd41e3af	-0.047336277
130	0xbda4bd83	-0.08043959
131	0xbc09d1d1	-0.008411841
132	0xbc8680fe	-0.01641893
133	0xbd9b7de7	-0.07592373
134	0xbdcda6fb	-0.100416146
135	0x3bbd69da	0.0057804408
136	0xbd8b5784	-0.06803802
137	0x3c0337e2	0.008008929
138	0xbdd08792	-0.10182108
139	0xbc61f0e8	-0.013790347
140	0xbd586748	-0.05283287
141	0xbd90fff4	-0.07080069
142	0xbb89ee70	-0.004209332
143	0xbc98ed42	-0.01866782
144	0xbd001212	-0.031267233
145	0xbd867acc	-0.065663904
146	0xbcc81ed0	-0.024428755
147	0xbd671719	-0.056418512
148	0xbe07b33b	-0.13251965
149	0xbe5d3d9c	-0.21605533
150	0xbd18f9c4	-0.03734757
151	0xbce03fd6	-0.02737419
152	0xbdaa8a63	-0.083271764
153	0x3abca1d8	0.0014391495
154	0xbd859670	-0.06522834
155	0xbd8eee49	-0.06979043
156	0xbd632dc0	-0.055463552
157	0xbd751fdb	-0.059844833
158	0xbd5c41cf	-0.053773697
159	0xbd5cf90e	-0.053948455
160	0xbd298248	-0.04138401
161	0xbd102824	-0.03519453
162	0xbd0a387a	-0.033745266
163	0xbdfc248c	-0.12311658
164	0xbc39fd0d	-0.011351836
165	0xbd33d09f	-0.04390013
166	0x3d201d6a	0.03909055
167	0x3bc4938c	0.0059990343
168	0xbd242fec	-0.040084764
169	0xbc6dafb9	-0.014507228
170	0x3b331dce	0.0027330997
171	0xbd98f6cb	-0.07468947
172	0xbc3ce0b6	-0.011528185
173	0xbd37500c	-0.044754073
174	0xbda41635	-0.08012048
175	0xbd819a93	-0.06328311
176	0xbc28e2f9	-0.010308021
177	0xbf02ffc3	-0.5117151
178	0x3bb447a6	0.005501705
179	0xbd0db6d7	-0.034598198
180	0x39efba46	0.00045724417
181	0xbdb23d0b	-0.08703049
182	0x3dbdc672	0.09266366
183	0xbdcec3b9	-0.10095925
184	0xbe3411c8	-0.17584908
185	0xbda62295	-0.08112065
186	0xbcd16dfa	-0.025565136
187	0xbdf67dba	-0.12035699
188	0xbd3d8624	-0.046270505
189	0xbc7fe5cb	-0.015618752
190	0xbd4a7640	-0.04942918
191	0xbc73921d	-0.014866379
192	0xbe246122	-0.16052678
193	0xbd0ca920	-0.034340978
194	0xbd812037	-0.063049726
195	0xbd426965	-0.047463793
196	0xbb3d2a10	-0.0028864183
197	0xbdaae0c0	-0.08343649
198	0xbd9210b6	-0.071320936
199	0xbe0598ef	-0.13046621
200	0xbe02bfb6	-0.12768444
201	0x3ed0ae65	0.40758052
202	0xbd96ac35	-0.07357065
203	0xbd8163be	-0.063178524
204	0xbd6a9270	-0.05726856
205	0xbda8fd78	-0.0825147
206	0xbd59ecdf	-0.053204414
207	0xbdb7beaf	-0.08971917
208	0xbd6212fa	-0.05519388
209	0xbd532887	-0.05155232
210	0xbd9fec91	-0.07808793
211	0xbd6dac6f	-0.058025774
212	0xbd026aee	-0.031840257
213	0xbd77e0fa	-0.06051729
214	0xbda81646	-0.08207373
215	0xbd916964	-0.0710018
216	0xbe4482d2	-0.19190529
217	0xbd9c82ce	-0.076421365
218	0xbeac2f79	-0.3362997
219	0xbda3cfb9	-0.07998604
220	0xbda9bfbe	-0.08288525
221	0xbceb3ba4	-0.028714962
222	0xbd507dc7	-0.0509012
223	0xbd1ff96d	-0.03905623
224	0xbcdc7fc9	-0.026916401
225	0xbd48af85	-0.048995513
226	0xbda3f990	-0.08006585
227	0xbe47373b	-0.19454663
228	0xbe0e193a	-0.1387681
229	0x3c120069	0.008911231
230	0xbcc3bafe	-0.023892876
231	0xbd880a3e	-0.066425785
232	0xbdddc65d	-0.108288504
233	0xbe83b13b	-0.25721154
234	0x3bccfe26	0.006255883
235	0xbd3a1cd1	-0.045437638
236	0xbd169ed0	-0.03677255
237	0xbd23118f	-0.039811667
238	0xbd8303eb	-0.06397232
239	0xbadcbe30	-0.0016841348
240	0xbd19d2d5	-0.03755458
241	0xbd7f864d	-0.06238394
242	0xbb9957af	-0.004679642
243	0xbcab098f	-0.020878581
244	0xbe12cf2f	-0.14336847
245	0xbd247dfc	-0.04015921
246	0x3e8c9691	0.27458623
247	0xbcc993cc	-0.024606608
248	0xbd9a88d1	-0.07545627
249	0xbdb0ba68	-0.08629304
250	0xbd50c326	-0.050967358
251	0xbda4c41f	-0.0804522
252	0x3ac9809d	0.0015373413
253	0x3d0aeca5	0.033917088
254	0xbe55c135	-0.20874484
255	0xbd05f180	-0.032701015

l3.weight f4 [1, 300]
0	0x3cee9bf9	0.029127108
1	0xbc85a599	-0.016314315
2	0x3f0e72dd	0.5564402
3	0xbcd10e30	-0.02551946
4	0x3d82ac16	0.06380479
5	0xbc8a2e38	-0.016867742
6	0xbecc43f5	-0.39895597
7	0x3c13ca5b	0.009020413
8	0x3e8e4026	0.27783316
9	0xbfa79887	-1.3093423
10	0x3cf3619b	0.029709628
11	0x3c10d31e	0.008839397
12	0x3e608ba7	0.21928273
13	0x3c21ca6b	0.00987492
14	0x3ddaa683	0.10676291
15	0x3bba4c79	0.005685386
16	0x3cf29e7b	0.029616585
17	0xbc1399cd	-0.009008837
18	0x3cb1eee8	0.021720365
19	0xbb845c2b	-0.0040393076
20	0x3c40d3b3	0.011769223
21	0x3d0b4879	0.034004662
22	0x3d164251	0.036684338
23	0x3f55c242	0.8349954
24	0xbdb7ec6f	-0.08980643
25	0x3cdb93fc	0.026803963
26	0xbbc5ec61	-0.0060401415
27	0x3ce315cb	0.027720353
28	0x3b03f655	0.002013584
29	0xbc82d963	-0.015972799
30	0x3d44dc35	0.04806157
31	0x3cce32f7	0.025170786
32	0x3c2bfacb	0.010496805
33	0xbc7e5cdf	-0.015525072
34	0x3d51a585	0.051183242
35	0xbc8514f3	-0.01624534
36	0xbc624817	-0.013811133
37	0xbb4f8cd8	-0.0031669643
38	0xbc52bfc5	-0.012863104
39	0xbcf47ea4	-0.029845543
40	0xbb155c52	-0.0022790623
41	0x3a182de0	0.0005805176
42	0xbd06dfb1	-0.032928172
43	0x3b751be6	0.0037400662
44	0xbda00510	-0.078134656
45	0x3bb169f2	0.005414241
46	0xbba35cf0	-0.0049854442
47	0xbd58fafa	-0.052973725
48	0xbed8b8a0	-0.42328358
49	0x3ba4f1b9	0.0050336984
50	0xbd080463	-0.03320731
51	0xb8a0b143	-7.662412e-05
52	0xbd15f7ea	-0.036613382
53	0xbd0e8e80	-0.034803867
54	0xbeac2272	-0.3362003
55	0x3cd5d90c	0.026104473
56	0xbcf2390c	-0.029568218
57	0x3c9c3e19	0.01907258
58	0xbc845e40	-0.016158223
59	0x3d7885c0	0.06067443
60	0x3c67f82e	0.014158292
61	0x3cd8a9ab	0.026448091
62	0x3ce408e9	0.02783628
63	0x3beb6a58	0.007184308
64	0x3c97e5b7	0.018542154
65	0xbe0f36ee	-0.13985798
66	0x3d0c1926	0.03420367
67	0xbc5b3d2f	-0.0133812865
68	0x3d453987	0.048150565
69	0xbc84590e	-0.016155746
70	0x3ca415ad	0.020029867
71	0x3a5f6084	0.0008521157
72	0x3b6b31ef	0.0035887917
73	0xbd35cd66	-0.044385336
74	0x3d1beb2e	0.03806608
75	0x3d1b4dbc	0.03791593
76	0x3b91872b	0.004441162
77	0xbd0c7633	-0.03429241
78	0x3cc651cd	0.024208928
79	0x3ca6defc	0.02037
80	0x3c084fd1	0.008319811
81	0x3d5e596b	0.054284494
82	0x3e3af49b	0.18257372
83	0x3bc99655	0.006151954
84	0x3c02cbc2	0.00798315
85	0x3b9d03e0	0.0047917217
86	0xbcb9b2c1	-0.022668244
87	0x3ce668da	0.028126169
88	0xbc90b540	-0.017664552
89	0xbc9da4c8	-0.019243613
90	0x3cd8b5c9	0.02645387
91	0x3c75d2f5	0.015003909
92	0xbc1e3e28	-0.009658374
93	0xbd5429f5	-0.051797826
94	0xbcd74a68	-0.026280597
95	0x3c8b6000	0.01701355
96	0xbc71da9e	-0.014761595
97	0x3cef5e20	0.029219687
98	0xbb8e1978	-0.004336532
99	0xbca200c3	-0.019775754
100	0x3be9842b	0.0071263514
101	0x3e01eeff	0.12688826
102	0x3c7105d4	0.014710862
103	0xbc9d06e2	-0.019168321
104	0x3b50277e	0.003176182
105	0xbb9f0833	-0.0048532723
106	0x3cfc3cb2	0.03079066
107	0xbc897ec5	-0.016784081
108	0x3f6447b2	0.891719
109	0xbcf329b4	-0.029682972
110	0x3ce7c88e	0.028293874
111	0xbaa86a75	-0.001284911
112	0xbe51507d	-0.2044086
113	0xbd4f083a	-0.050544955
114	0xbc88b669	-0.016688542
115	0x3c99c099	0.018768596
116	0x3d295a99	0.041346166
117	0x3b76445c	0.0037577366
118	0x3c4230bd	0.01185244
119	0x3c061577	0.008183829
120	0xbbe92436	-0.0071149124
121	0x3cf429a5	0.029805014
122	0x3c428d9c	0.011874583
123	0x3cf4200c	0.029800437
124	0xbcc5bed7	-0.024138851
125	0xbcdf8c83	-0.02728868
126	0x3c851c6c	0.016248904
127	0xbc577b96	-0.013152024
128	0xbe350067	-0.17675935
129	0xbc42b688	-0.011884339
130	0xbcbbf058	-0.022941753
131	0xbb1a39b9	-0.002353294
132	0xbcfa5fca	-0.030563254
133	0xbb03126d	-0.0019999996
134	0x3c981202	0.018563274
135	0x3c83a628	0.01607044
136	0xbc716106	-0.014732605
137	0x3a94f872	0.0011365546
138	0xbcce255e	-0.025164302
139	0x3ca99e42	0.020705346
140	0xbcb8d28e	-0.022561338
141	0xbc82c048	-0.015960827
142	0x3d039f82	0.03213454
143	0x3b8aa8a8	0.004231531
144	0x3cabdf2d	0.020980442
145	0x3ce1ff05	0.027587423
146	0xba1ad32c	-0.0005906101
147	0xbd82b635	-0.063824095
148	0xbc58e62c	-0.013238471
149	0x3d9b325f	0.07577967
150	0x3c8725a7	0.016497446
151	0x3cfef1c9	0.031121152
152	0xbcb4e677	-0.02208255
153	0xb9303f04	-0.00016808143
154	0x3d42b6f4	0.04753776
155	0xbc9b575c	-0.018962555
156	0x3c378054	0.011200029
157	0x3c1cd08e	0.009571208
158	0x3cc476ca	0.023982424
159	0xbcbd5d97	-0.023115916
160	0xbcbcbef8	-0.02304028
161	0x3c9d9d77	0.019240124
162	0x39003308	0.00012226042
163	0x3d0e60a5	0.034760136
164	0xbd23e272	-0.040010877
165	0xbcca2eb7	-0.024680478
166	0xbdc5421e	-0.096317515
167	0x3ac720bb	0.001519225
168	0x3c81ce49	0.015845435
169	0x3a75d49a	0.00093776884
170	0x3c848947	0.01617874
171	0x3bd7d6e9	0.0065868986
172	0xbcbc1639	-0.022959815
173	0xbc722839	-0.014780098
174	0x3c7a1da5	0.015265857
175	0x3c03a6da	0.008035386
176	0xbeb1b489	-0.3470805
177	0x3f93f4ca	1.1559079
178	0xbb88587e	-0.0041609397
179	0x3c1d5c56	0.009604534
180	0xbbbc7059	-0.0057506976
181	0xbaa78470	-0.0012780558
182	0xbeaf22df	-0.34206292
183	0x39faceba	0.0004783774
184	0x3f87607c	1.057632
185	0xbccada8a	-0.02476241
186	0x3bbfc1aa	0.005851944
187	0x3b1df406	0.0024101748
188	0x3c06df50	0.008231953
189	0xbb923b96	-0.0044626696
190	0xbcaed81f	-0.021343289
191	0xbbb6d1ba	-0.0055792006
192	0xbed8350d	-0.42227975
193	0xbc8baedb	-0.017051151
194	0xbc94302c	-0.018089376
195	0xbc9f122c	-0.019417845
196	0x3d7bbeca	0.061461248
197	0xbc387e38	-0.011260562
198	0x3d89528e	0.06705199
199	0x3b7042ef	0.003666099
200	0xbc9491c7	-0.018135918
201	0xbe3143b9	-0.1731099
202	0xbc2306fe	-0.009950398
203	0xbc256ed8	-0.010097228
204	0xbc06547c	-0.008198854
205	0xbce00af0	-0.027348965
206	0x3a4f1b82	0.00079005223
207	0x3b39b751	0.0028338025
208	0xbc708124	-0.014679227
209	0x3d0a6e19	0.033796404
210	0x3c56e2d0	0.0131156
211	0x3cd7d5fc	0.026347153
212	0xbccfbd57	-0.025358839
213	0xbce88e43	-0.028388148
214	0xbcf55329	-0.02994688
215	0xbbb325e6	-0.0054671643
216	0x3d5a8d06	0.053357147
217	0xba881690	-0.0010382701
218	0xbb58bfd0	-0.0033073314
219	0x3c7ba7fa	0.015359873
220	0x3d3f6748	0.046729356
221	0x3c82e7cd	0.015979672
222	0xbaba3abb	-0.0014208177
223	0x3c023129	0.007946291
224	0xba23fd51	-0.00062557036
225	0x3cbe2f94	0.023216046
226	0x3beeaf24	0.007284062
227	0xbbb5a48a	-0.005543296
228	0x3cd6ca65	0.026219556
229	0x3cbcf823	0.02306754
230	0x3b16835e	0.0022966485
231	0xbc03de6c	-0.008048635
232	0x3d18bf82	0.03729201
233	0x3bdf504d	0.0068149925
234	0x3ba824c6	0.005131337
235	0xbc6220e4	-0.013801787
236	0x3ca5e751	0.020251902
237	0x3db038a5	0.08604554
238	0xbcd8c1a4	-0.026459523
239	0xbc780772	-0.015138494
240	0x3c49bcb9	0.012313061
241	0x39149680	0.00014170446
242	0xbccd59c3	-0.025067216
243	0xbcab28b5	-0.020893434
244	0x3cfabaa7	0.03060658
245	0xbc2284b2	-0.009919332
246	0xbe856810	-0.26055956
247	0x3b7772ea	0.0037757703
248	0xbb281068	-0.0025644545
249	0xbcb17cda	-0.02166598
250	0xbc7746ef	-0.0150925955
251	0xbcaa7cce	-0.020811465
252	0xbca04feb	-0.019569358
253	0xbc8a2710	-0.01686433
254	0x3ce3c440	0.02780354
255	0xbcdc6ea3	-0.026908224
