codes/DDPG/runscritic.pth (torch, 492651 bytes, 5 tensors)

l1.weight f4 [400, 4]
0	0x3e1737b6	0.14767346
1	0x3ee8b954	0.45453894
2	0xbc2bfd5f	-0.01049742
3	0xbc8153b1	-0.015786977
4	0x3fa29ad1	1.2703496
5	0x3fb851a0	1.439991
6	0x3f0806c9	0.53135353
7	0x3d91841d	0.07105277
8	0x3f4ba0f2	0.7954246
9	0x3f3428e3	0.7037489
10	0x3eb25146	0.34827632
11	0x3e7d1496	0.24714884
12	0xbf5e24b7	-0.8677477
13	0xbe8a6b14	-0.2703482
14	0x3e59a68b	0.21254937
15	0xbea281a6	-0.3173954
16	0xbf163db7	-0.5868792
17	0x3f440cef	0.76582235
18	0x3e6dccf9	0.23222722
19	0x3c89f52d	0.016840542
20	0x3e85f228	0.26161313
21	0x4002107d	2.0322564
22	0xbe8996ea	-0.2687295
23	0xbc42779c	-0.011869337
24	0x3f40a7b3	0.7525589
25	0xbfb165bb	-1.3859171
26	0xbe360251	-0.17774321
27	0xbe555bae	-0.20835754
28	0xbf857be8	-1.0428438
29	0xbf0d60d8	-0.55225897
30	0x3e272426	0.16322383
31	0x3d6ccd32	0.057812877
32	0x3e5dbb2f	0.21653436
33	0x3eb0dc15	0.3454291
34	0x3ed410f1	0.41419175
35	0xbdf71128	-0.12063819
36	0x3f83db5e	1.030132
37	0x3f8336d3	1.0251106
38	0x3e94edbb	0.29087624
39	0xbdbe8339	-0.093023725
40	0xbf35bbfc	-0.70989966
41	0xc01746e3	-2.3637016
42	0xbe9f477f	-0.31109235
43	0xbe01d5ce	-0.12679216
44	0x3e69793c	0.22800153
45	0xbf3da88b	-0.740853
46	0xbc96a4be	-0.018389102
47	0xbe744609	-0.23854841
48	0x3f79b44c	0.97540736
49	0xbfa716fe	-1.3053892
50	0xbec23318	-0.37929606
51	0xbd2d3dd9	-0.04229531
52	0x3e8503f3	0.25979576
53	0x3cf3e263	0.029771036
54	0x3eb8afaa	0.3607152
55	0x3d885b52	0.06658043
56	0xbd62e408	-0.05539325
57	0x3e11c106	0.14233789
58	0xbf0d06da	-0.5508858
59	0xbe849735	-0.25896612
60	0xbf1c49fc	-0.6105039
61	0xbf362d90	-0.7116327
62	0xbddc249e	-0.10749172
63	0x3e63a423	0.22230582
64	0x3fb559c9	1.4168025
65	0xbf3fe87d	-0.74964124
66	0xbf1152da	-0.56767046
67	0xbdd0e12c	-0.10199198
68	0xbe9ff87c	-0.31244266
69	0xbffd552d	-1.9791619
70	0xbd8adb62	-0.06780125
71	0xbe28f7bb	-0.16500752
72	0xbece891e	-0.40338987
73	0x3f454fec	0.77075076
74	0xbccdef8e	-0.025138643
75	0xbd0eafee	-0.03483575
76	0x3ea702df	0.32619378
77	0xbf3c1a73	-0.7347786
78	0xbe0733c6	-0.13203344
79	0x3e8d054f	0.27543113
80	0xbf018257	-0.5058951
81	0xbf918fb0	-1.1371975
82	0xbdcb1d58	-0.09917706
83	0x3d0b45fe	0.034002297
84	0xbee5c12e	-0.44873947
85	0x3eba46a2	0.36382014
86	0x3e0eab95	0.13932641
87	0xbe3df31d	-0.18549772
88	0xbf24c8d5	-0.64368945
89	0xbeb46ca6	-0.35239142
90	0xbd557a0b	-0.052118342
91	0x3d252ec3	0.0403278
92	0x3fc0d873	1.5066055
93	0xbf88681c	-1.0656772
94	0xbf16bcc2	-0.5888177
95	0xbd68afa1	-0.056808118
96	0x3fb33c52	1.4002783
97	0xbf95896a	-1.168256
98	0xbf1e8879	-0.6192699
99	0xbf1b24b2	-0.6060287
100	0x3efbc83b	0.491762
101	0xbf57c872	-0.8429023
102	0x3de3f56b	0.11130794
103	0xbbcd6a27	-0.006268758
104	0xbf608d2c	-0.8771541
105	0xbfef3529	-1.8688098
106	0xbe8091e7	-0.25111315
107	0xbd9e0ea8	-0.07717639
108	0x3f4fd71f	0.81187624
109	0x3e70cce2	0.23515657
110	0x3e3dcba5	0.18534715
111	0x3e2c4745	0.16824062
112	0xbedfb85b	-0.4369534
113	0xbfb78f7a	-1.434066
114	0xbdca1992	-0.098681584
115	0x3d3e21f0	0.046419084
116	0x3e29bff1	0.16577126
117	0x3fbf9de9	1.4970065
118	0x3e85b505	0.2611467
119	0x3e36ce2b	0.17852084
120	0xbeca9c19	-0.39572218
121	0x3e9439a8	0.28950238
122	0x3ba1fd5a	0.004943532
123	0xbda233f6	-0.07920067
124	0x3f8b8ddb	1.0902666
125	0x3f828ade	1.0198629
126	0x3ee9a5a5	0.4563419
127	0x3db23c6c	0.08702931
128	0x3efe1eb9	0.49632815
129	0x3f9e477b	1.2365564
130	0xbe582814	-0.21109039
131	0xbd2c251a	-0.04202757
132	0x3ebbefd2	0.36706406
133	0xbffc9d7d	-1.9735562
134	0xbea6e2c0	-0.32594872
135	0xbdbc8ddf	-0.09206747
136	0x3fa63b13	1.2986778
137	0x3f59dcfe	0.8510283
138	0x3ef3ea07	0.47639486
139	0x3d6a585b	0.05721317
140	0x3e885235	0.2662522
141	0x3efbd1ba	0.49183446
142	0xbe55b5ca	-0.20870128
143	0x3d1da36c	0.03848593
144	0x3eca97d7	0.3956897
145	0x3e96cb19	0.29451826
146	0x3e822f66	0.25426787
147	0x3e6c718d	0.23090191
148	0xbf6a8f38	-0.91624784
149	0x3f5668c0	0.83753586
150	0xbe5a36fd	-0.21310039
151	0x3e15d1bb	0.14630787
152	0x3e72735b	0.23676817
153	0xbfbaebda	-1.4603226
154	0x3d97d54c	0.0741373
155	0xbbe1cbe8	-0.0068907626
156	0x3e86f74c	0.26360548
157	0x4013dd3b	2.3103778
158	0x3edc65d6	0.43046445
159	0x3e3fcf94	0.18731529
160	0xbe1a71b6	-0.1508244
161	0x3f627842	0.8846475
162	0xbec3e216	-0.38258427
163	0x3d8fc96b	0.07020839
164	0xbe9abeef	-0.30223796
165	0x3f65cdba	0.8976704
166	0x3dfcb7f7	0.12339776
167	0x3e12dd7e	0.14342305
168	0xbed193a3	-0.4093295
169	0xbfc5e1f1	-1.5459577
170	0xbe380cc6	-0.17973623
171	0xbd173528	-0.036915928
172	0x3e0cc1b5	0.13745768
173	0x3e203f1b	0.15649073
174	0x3d1f9909	0.038964305
175	0xbd76abbf	-0.060222384
176	0xbb936f19	-0.004499328
177	0xbfc16d9b	-1.5111574
178	0xbe8d5e3c	-0.27610958
179	0x3d85f8ba	0.065415815
180	0xbf0f307f	-0.55933374
181	0x3ebad359	0.3648937
182	0xbd82d7a7	-0.06388789
183	0xbe0ab20d	-0.13544483
184	0xbf375ec0	-0.7162895
185	0x3ecc6e9c	0.39928138
186	0x3ef143fe	0.47122186
187	0x3d599d49	0.053128514
188	0x3dced15d	0.100985266
189	0xbf0c7124	-0.5486014
190	0x3e36d2b8	0.1785382
191	0x3c1d274c	0.009591889
192	0xbed06ca6	-0.40707892
193	0x3fb3e0b4	1.4052949
194	0x3e8a21b6	0.26978844
195	0x3e447407	0.19184886
196	0xbebf0a01	-0.3731232
197	0xbf3c91d2	-0.73660004
198	0xbe1c0a75	-0.15238364
199	0x3ea0efa9	0.31432846
200	0xbf273df2	-0.65328896
201	0xbf926307	-1.1436471
202	0xbe5298ce	-0.20566103
203	0x3c9cd809	0.019145982
204	0xbf967d14	-1.1756921
205	0xbfbf1581	-1.4928437
206	0xbe3e6401	-0.18592836
207	0x3d8aa074	0.06768885
208	0x3f032e0e	0.5124215
209	0xbfb3619a	-1.4014161
210	0xbe2e82c5	-0.17042072
211	0xbcc3cae3	-0.023900455
212	0x3eb48c6d	0.35263386
213	0xbfff7915	-1.9958826
214	0xbe062f49	-0.13103975
215	0xbe16cde7	-0.14726983
216	0xbe33722b	-0.1752402
217	0xc00b96a8	-2.1810703
218	0xbf01b384	-0.50664544
219	0xbe4aa571	-0.19789673
220	0xbf399058	-0.72485876
221	0x3ee7c679	0.4526861
222	0x3e5d4926	0.21609935
223	0xbee86223	-0.45387372
224	0x3f8b3a9a	1.0877259
225	0xbfac4c2b	-1.3460745
226	0x3e564812	0.2092593
227	0xbea83a87	-0.32857153
228	0xbee0fdc5	-0.4394361
229	0x3fb0b6d6	1.3805797
230	0x3e593843	0.21212868
231	0x3e0f178a	0.13973823
232	0xbdec83fb	-0.11548611
233	0xbfad7d92	-1.3553946
234	0xbe792381	-0.2432995
235	0xbe3118f4	-0.17294675
236	0x3fa2fbcd	1.2733094
237	0xbfea41c9	-1.8301326
238	0xbf0d1c28	-0.5512109
239	0xbd800f51	-0.062529214
240	0xbdf27319	-0.118383594
241	0x401cd929	2.4507544
242	0x3f00cd0c	0.50312877
243	0x3dd608e2	0.10450913
244	0xbee65b86	-0.44991702
245	0xbfc06d3b	-1.5033334
246	0xbe13fa65	-0.14450987
247	0xbe7dd662	-0.24788812
248	0xbe88532a	-0.2662595
249	0x3f4866e6	0.7828201
250	0xbdda6753	-0.10664239
251	0x3b513ca2	0.003192701
252	0xbf2d33d7	-0.67657226
253	0xbf992978	-1.196578
254	0xbe2fa03a	-0.17150965
255	0xbd294fac	-0.041335747

l1.bias f4 [400]
0	0xbf299673	-0.6624519
1	0xbf1cc078	-0.61231184
2	0xbe363c2a	-0.17796388
3	0x3eaf5379	0.34243372
4	0x3ed02222	0.4065104
5	0xbf5a4838	-0.8526645
6	0xbf29cb55	-0.66325885
7	0x3e9df75d	0.30852786
8	0xbf911347	-1.1334008
9	0xbe9ac2f1	-0.30226853
10	0xbdb08c10	-0.08620465
11	0xbe953022	-0.29138285
12	0xbe66df8b	-0.22546212
13	0xbfaa2c42	-1.3294756
14	0xbf52fd64	-0.82417893
15	0xbee2deb0	-0.44310522
16	0xbf891ee1	-1.0712548
17	0xbe2a991a	-0.16659966
18	0xbec78018	-0.38964915
19	0x3d4d3c35	0.050106246
20	0xbf02ef2f	-0.51146215
21	0xbf2fb292	-0.6863185
22	0x3f086339	0.532764
23	0xbf6c0d64	-0.9220793
24	0xbcbc9f89	-0.023025291
25	0xbe74d575	-0.23909552
26	0xbf508590	-0.814538
27	0xbf137488	-0.5759969
28	0xbe5b07c7	-0.21389686
29	0xbf05e0c4	-0.5229609
30	0xbf2ca917	-0.6744551
31	0xbf33c615	-0.70224124
32	0xbe9d6e01	-0.3074799
33	0xbec8b17a	-0.39197904
34	0xbf6d6216	-0.9272779
35	0xbe9cccdc	-0.30625045
36	0xbec4a929	-0.3841031
37	0x3f2eaa0d	0.68228227
38	0xbf431bb4	-0.76214147
39	0xbf7fa15a	-0.9985558
40	0xbf7ecd0a	-0.99531615
41	0x3e12c920	0.14334536
42	0xbe39e456	-0.1815351
43	0xbee2db11	-0.4430776
44	0xbef69205	-0.4815828
45	0xbec541db	-0.38526806
46	0xbf7eb6a0	-0.99497414
47	0xbeab0bb9	-0.3340738
48	0x3ea6bc26	0.3256542
49	0xbcb403cd	-0.021974469
50	0x3e86d9b9	0.26337984
51	0xbf5ea118	-0.8696456
52	0xbee36d3e	-0.44419283
53	0xbe944aa6	-0.28963202
54	0xbeab690b	-0.3347858
55	0xbe91d179	-0.28480127
56	0xbeb658c5	-0.356146
57	0x3e8eaf40	0.2786808
58	0xbeb53803	-0.35394296
59	0xbe747ec8	-0.23876488
60	0xbf668a9a	-0.9005524
61	0xbf530cd8	-0.82441473
62	0xbedcccc7	-0.43124983
63	0x3e257c59	0.16160716
64	0xbf204300	-0.62602234
65	0xbf9847d0	-1.1896915
66	0x3ef628f6	0.48078126
67	0x3c8ca450	0.017168194
68	0xbf6547f7	-0.89562935
69	0xbf01c132	-0.5068542
70	0xbf593267	-0.8484253
71	0xbf7c91be	-0.98659885
72	0xbec9412f	-0.39307544
73	0xbebcdc6b	-0.36886916
74	0x3f603720	0.87584114
75	0xbf1fd5c4	-0.62435555
76	0x3f0a8286	0.5410541
77	0xbed575b4	-0.41691363
78	0xbe3f9732	-0.1871002
79	0xbe1a50c8	-0.15069878
80	0xbf03db41	-0.5150643
81	0xbc001d97	-0.007819555
82	0xbf5f0c18	-0.8712783
83	0xbe23ede1	-0.16008712
84	0xbed87c12	-0.42282158
85	0xbf69caed	-0.91325265
86	0xbf71ae57	-0.94406646
87	0xbf0061b0	-0.5014906
88	0xbf829259	-1.0200912
89	0x3efd41a0	0.4946413
90	0xbefcb199	-0.49354246
91	0xbeedaf26	-0.4642269
92	0x3d37eeaa	0.044905342
93	0xbf5220ec	-0.82081485
94	0x3efefb2d	0.49801007
95	0x3b77f369	0.0037834293
96	0x3ebaa9ab	0.3645757
97	0xbed97830	-0.42474508
98	0x3e3ea220	0.18616533
99	0xbedc9f4a	-0.43090278
100	0xbefc71ee	-0.4930567
101	0xbf49c773	-0.7881996
102	0xbf18e410	-0.59722996
103	0x3f2a52e3	0.66532725
104	0xbf2cecfc	-0.6754911
105	0xbf8c521d	-1.0962559
106	0xbf67712c	-0.9040706
107	0x3d672595	0.056432325
108	0xbe3313be	-0.17488
109	0xbf2fd855	-0.6868947
110	0xbf3425cd	-0.7037018
111	0xbf664a29	-0.8995691
112	0xbf7ad72a	-0.97984564
113	0x3e0928bd	0.13394447
114	0xbf0decfc	-0.55439734
115	0xbeb7cc7a	-0.3589819
116	0x3e26d6ef	0.16292928
117	0xbf9ed15d	-1.2407643
118	0xbe333215	-0.17499574
119	0xbea70925	-0.32624164
120	0xbf2cc176	-0.674827
121	0x3eccb9ff	0.39985654
122	0xbf198351	-0.59966
123	0xbf06504e	-0.52466285
124	0xbf45ed42	-0.7731515
125	0xbecccbae	-0.39999145
126	0xbf4cd58b	-0.8001334
127	0xbf13023b	-0.5742528
128	0xbf36b4ed	-0.7136982
129	0x3e836f91	0.25671056
130	0x3e24bca0	0.1608758
131	0x3c28bacf	0.010298445
132	0xbfa3229f	-1.274494
133	0x3ccc0f57	0.024909658
134	0xbf77100a	-0.9650885
135	0xbe5595a7	-0.20857869
136	0xbf7e3118	-0.9929366
137	0xbe788eda	-0.24273244
138	0xbf8063db	-1.0030473
139	0xbf60f640	-0.8787575
140	0xbf51d682	-0.8196794
141	0xbedd2ed4	-0.4319979
142	0x3de00a72	0.10939492
143	0x3f058a6c	0.5216434
144	0xbf6f420f	-0.9346017
145	0xbeb057c8	-0.34441972
146	0xbf4b3c07	-0.7938847
147	0xbec78d8d	-0.38975182
148	0xbe89d39d	-0.2691926
149	0xbea2e186	-0.31812686
150	0x3ed9a7b4	0.4251076
151	0xbc4fc940	-0.012682259
152	0xbe44f345	-0.19233425
153	0x3d688561	0.056767825
154	0xbf821831	-1.0163633
155	0x3db0af2a	0.0862716
156	0x3ea5f6c4	0.3241483
157	0xbf944dac	-1.1586204
158	0x3db395ad	0.08768783
159	0xbe834bb8	-0.25643706
160	0xbf75e964	-0.9605925
161	0xbf925810	-1.1433125
162	0xbe2c1efb	-0.16808693
163	0xbf58faa3	-0.8475744
164	0xbebb972a	-0.36638767
165	0xbeda51e5	-0.42640606
166	0xbf32c41a	-0.6983048
167	0x3f77623c	0.9663427
168	0xbeebdd2e	-0.46067184
169	0xbed4a8a3	-0.4153491
170	0xbf01370a	-0.5047461
171	0xbea1d52a	-0.31607944
172	0xbee6c3b1	-0.45071176
173	0xbf0edc22	-0.55804646
174	0xbf382a2f	-0.7193937
175	0xbf3a5e8a	-0.72800505
176	0xbf53e723	-0.8277456
177	0x3eff60bf	0.498785
178	0xbe8199fe	-0.253128
179	0xbcc4b1ab	-0.0240105
180	0xbf254a98	-0.64566946
181	0xbe66dca5	-0.22545107
182	0x3d68cdd0	0.056836903
183	0xbf5ec2f8	-0.8701625
184	0xbe02ac48	-0.12761033
185	0xbf6ffb66	-0.9374298
186	0xbf29365a	-0.6609856
187	0xbf8030a3	-1.0014843
188	0x3f293f2a	0.66112006
189	0xbf815814	-1.0105004
190	0x3f867e4d	1.0507294
191	0x3f74536f	0.9543981
192	0xbf394818	-0.7237563
193	0xbf6a9817	-0.9163832
194	0xbf8b8742	-1.0900652
195	0xbebc4ac6	-0.36775798
196	0xbf157b1a	-0.58390963
197	0xbe7935ac	-0.2433688
198	0xbd73e6fb	-0.059546452
199	0x3e228eb6	0.15874752
200	0xbed4bc0b	-0.41549715
201	0xbf33d59a	-0.70247805
202	0x3eb78aad	0.3584799
203	0x3f2c476d	0.6729649
204	0xbf836a43	-1.0266804
205	0xbe2bf694	-0.16793281
206	0xbe2ca334	-0.16859132
207	0x3ec28a4e	0.37996143
208	0xbf146a64	-0.5797484
209	0xbf82914a	-1.0200589
210	0x3ed772cc	0.4207977
211	0xbf36b2d4	-0.7136662
212	0xbf776c69	-0.96649796
213	0xbe9a4f8f	-0.30138823
214	0x3de041cf	0.10950052
215	0xbe94305d	-0.28943148
216	0xbedc3e10	-0.430161
217	0xbe680fe0	-0.22662306
218	0xbed32a63	-0.41243276
219	0xbdc4e71c	-0.09614393
220	0xbf63d6d0	-0.8899965
221	0xbeb2ad3c	-0.34897792
222	0x3eeae990	0.4588132
223	0xbf2e0029	-0.67968994
224	0x3e811934	0.2521454
225	0xbf524e4d	-0.8215073
226	0xbf197d7b	-0.59957093
227	0x3f5ab19a	0.8542725
228	0xbf2073ab	-0.62676495
229	0x3e1ea97d	0.15494342
230	0xbf376b9b	-0.7164857
231	0x3ee232c1	0.44179347
232	0xbf28c12f	-0.65919775
233	0xbe8950c5	-0.26819435
234	0x3f474583	0.7784044
235	0xbf05215b	-0.5200402
236	0x3f159699	0.5843292
237	0xbf3c90b7	-0.7365832
238	0xbeaa17f9	-0.33221415
239	0xbeb8c452	-0.3608728
240	0xbf42994c	-0.7601516
241	0xbf5dae1c	-0.86593795
242	0x3df4605a	0.1193244
243	0x3f1815f4	0.594085
244	0x3e973e6d	0.29539815
245	0x3e6ea6a1	0.23305751
246	0x3f4e7cd3	0.80659217
247	0x3ea45811	0.3209844
248	0x3e9eaadb	0.30989727
249	0xbf4ea481	-0.80719763
250	0xbe844f91	-0.25841954
251	0xbef8ea97	-0.48616478
252	0xbeb8cbc9	-0.36092976
253	0xbf9d2761	-1.2277642
254	0xbf43902b	-0.7639186
255	0xbf79d277	-0.9758677

l2.weight f4 [300, 400]
0	0x3e036947	0.12833129
1	0x3d4aae4b	0.049482625
2	0xbea7fa1a	-0.32808
3	0xbb7da337	-0.003870202
4	0x3c2647b1	0.0101489285
5	0xbe61f805	-0.22067268
6	0xbeaa0a31	-0.332109
7	0xbd615008	-0.055007964
8	0xbd85254c	-0.065012544
9	0x3e87abe3	0.26498327
10	0x3da661be	0.081241116
11	0xbe600bd3	-0.2187951
12	0xbf2311b6	-0.636989
13	0xbd95085c	-0.07276985
14	0xbfcbe48b	-1.5929121
15	0x3d3744d5	0.044743378
16	0xc02674db	-2.6008823
17	0x3dc045a7	0.09388285
18	0xbea1f1e1	-0.3162985
19	0x3e7379ee	0.23776981
20	0x3d1cdd03	0.03829671
21	0x3e83879e	0.25689405
22	0xbdb5e639	-0.08881802
23	0xbfcb8517	-1.5899991
24	0xbf7a3127	-0.9773125
25	0xbe9815c1	-0.29704097
26	0x3db80c3c	0.089867085
27	0xbdffc634	-0.12488976
28	0xbd5ce18a	-0.05392603
29	0xbeb12e44	-0.3460561
30	0xbec73db1	-0.38914254
31	0xbda5f08e	-0.08102523
32	0x3d6d11d3	0.057878327
33	0xbf0ad08c	-0.5422447
34	0x3daa98ff	0.08329963
35	0xbe8d40a0	-0.27588367
36	0xbecf6645	-0.40507713
37	0xbdaf2db5	-0.0855364
38	0xbf8f2183	-1.1182102
39	0xbf9ec73d	-1.2404553
40	0xbf23400e	-0.63769615
41	0xbdfbac6e	-0.12288748
42	0xbd3f3f6a	-0.046691336
43	0xbded8d86	-0.11599259
44	0xbe436f50	-0.19085431
45	0xbfb9b90d	-1.4509598
46	0xbd41a52a	-0.047276653
47	0x3e0ae7cf	0.1356499
48	0xbe43b710	-0.19112802
49	0x3dd97440	0.10617876
50	0xbd4d3612	-0.050100394
51	0xbcdbc7b2	-0.02682862
52	0xbebaf8a0	-0.3651781
53	0xbf121ba0	-0.570734
54	0xbe7b807a	-0.24560729
55	0x3ea4050d	0.32035103
56	0xbf5b6a0d	-0.85708696
57	0xbe44176a	-0.19149557
58	0xbde25a49	-0.11052377
59	0xbf4e6d7f	-0.8063583
60	0xbff1a898	-1.8879576
61	0xbe832c49	-0.25619724
62	0xbeb1a196	-0.34693593
63	0xbdba192a	-0.09086831
64	0xbd71ff45	-0.059081335
65	0xbf3cad0e	-0.7370156
66	0xbe3abba8	-0.18235648
67	0xbebddfb7	-0.37084743
68	0xbee040a7	-0.43799326
69	0x3e075493	0.13215856
70	0xbcdbddaf	-0.026839105
71	0xbeb2e367	-0.3493912
72	0xbe093eb9	-0.13402833
73	0xbf83d31e	-1.0298803
74	0x3dc42be7	0.09578686
75	0xbe65dc41	-0.22447301
76	0xbdea60a6	-0.114442155
77	0xbefb800b	-0.49121127
78	0xbea15a29	-0.315141
79	0x3e91d691	0.28484014
80	0x3d9b7f3e	0.07592629
81	0xbfba0e91	-1.4535695
82	0xbea4b6bd	-0.32170668
83	0xbf017ea4	-0.50583863
84	0xbf332405	-0.69976836
85	0xbef6395e	-0.48090643
86	0xbf356141	-0.7085152
87	0xbed056f0	-0.40691328
88	0xbe205198	-0.15656126
89	0xbe4eb7c0	-0.20187283
90	0xbd1cd23a	-0.038286425
91	0xbe2c5b33	-0.16831665
92	0xbeb2c7a6	-0.34917945
93	0xbf4a9682	-0.79135907
94	0x3d91f4d4	0.071267754
95	0xbf075e2a	-0.5287806
96	0xbdc34fe6	-0.09536724
97	0xbf20ef03	-0.628647
98	0xbf9b36f8	-1.212615
99	0xbeb740e7	-0.35791704
100	0xbe610bd3	-0.21977167
101	0xbfdb3330	-1.7124996
102	0xbf2694ab	-0.650706
103	0xbdb29c1b	-0.08721181
104	0xbf610e5b	-0.8791253
105	0x3cd6ace2	0.026205484
106	0xbfd9898d	-1.6995102
107	0xbeef8eae	-0.46788543
108	0x3df0ef68	0.11764413
109	0xbec2b53c	-0.38028896
110	0xbfcce354	-1.6006875
111	0xbf3c4ff5	-0.73559505
112	0xbfa05ffb	-1.2529291
113	0xbfa209b2	-1.2659209
114	0xbdf47457	-0.119362526
115	0xbf0e17ef	-0.5550527
116	0xbf729d2a	-0.94771063
117	0xbfba1eb4	-1.454062
118	0x3e3a1712	0.18172863
119	0xbe09ad04	-0.13444906
120	0xbd9816f3	-0.07426252
121	0xbcc15ec7	-0.023604764
122	0xbea02924	-0.31281388
123	0xbdad1e34	-0.084530264
124	0xbf2be285	-0.67142516
125	0xbd36f5ed	-0.044668127
126	0xbf188c78	-0.5958934
127	0xbff02a71	-1.8762952
128	0xbf048156	-0.5175985
129	0xbe0d3fea	-0.13793913
130	0xbe873f48	-0.26415467
131	0xbe35ce68	-0.17754519
132	0xbd9de41e	-0.077095255
133	0xbe4f235d	-0.20228334
134	0xbedac594	-0.42728865
135	0xbdec67aa	-0.1154321
136	0xbf1b039e	-0.60552394
137	0xbf031e78	-0.51218367
138	0xbeb98b07	-0.36238882
139	0xbe820ce6	-0.25400466
140	0xbdc07adb	-0.09398433
141	0x3ddf0e6f	0.10891425
142	0xbdecb03d	-0.11557052
143	0x3e844273	0.25831947
144	0x3e853ce3	0.26023015
145	0xbe81a285	-0.25319305
146	0xbf317b2d	-0.69328576
147	0xbfd98005	-1.6992193
148	0xbe69e930	-0.2284286
149	0xbf69e6e3	-0.9136793
150	0xbdeade55	-0.11468188
151	0xbf6143d6	-0.87994134
152	0x3eba9d13	0.36447963
153	0x3e68d07e	0.22735783
154	0xbf06e1b9	-0.52688175
155	0xbda8b582	-0.08237745
156	0xbe21c5c9	-0.15798105
157	0xbe0fba56	-0.14035925
158	0xbe107b20	-0.14109468
159	0xbe812b4d	-0.25228348
160	0xbf2c22a7	-0.67240375
161	0xbe1ea114	-0.15491134
162	0xbf6e14c3	-0.9300043
163	0xbf9051b0	-1.1274929
164	0xbe2f422f	-0.17115091
165	0xbde33780	-0.1109457
166	0xbece1610	-0.40251207
167	0x3dad04a8	0.08448154
168	0x3c876776	0.016528826
169	0xbf2b5992	-0.6693355
170	0xbeb03378	-0.34414268
171	0xbefba6e0	-0.49150753
172	0xbea22132	-0.3166595
173	0xbe8e0179	-0.277355
174	0xbdb99368	-0.09061319
175	0xbe13aaba	-0.14420596
176	0xbf712d47	-0.9420971
177	0xbe3ac262	-0.18238214
178	0x3cf74b53	0.030187285
179	0xbf681e3b	-0.9067113
180	0xbfada842	-1.3566973
181	0xbf1f20a3	-0.62159175
182	0xbd8159f6	-0.06315987
183	0xbe646d94	-0.22307426
184	0x3d911993	0.07084956
185	0x3eb6d697	0.35710594
186	0xbdad53b9	-0.084632345
187	0xbf6c2c1a	-0.92254794
188	0x3b1bf8f9	0.0023799522
189	0x3e56e5da	0.20986119
190	0xbc9b6765	-0.0189702
191	0x3dd3aa63	0.10335233
192	0x3e1e0afc	0.15433878
193	0x3e9a20f2	0.3010326
194	0xbf2551b9	-0.64577824
195	0xbe893f4c	-0.26806104
196	0xbecfa94f	-0.4055886
197	0xbf7087b2	-0.93957055
198	0xbe2d1b56	-0.16904959
199	0x3e6f47a7	0.23367177
200	0xbe9aae94	-0.30211318
201	0xbf2a63dc	-0.66558623
202	0xbda30e2c	-0.079616874
203	0x3d7aee13	0.0612622
204	0xbf9817cf	-1.1882266
205	0xbf474127	-0.7783379
206	0xbf9a4174	-1.2051225
207	0x3ef27dc2	0.4736157
208	0xbf5948e4	-0.8487685
209	0xbf0c8118	-0.5488448
210	0x3e591bbd	0.21201988
211	0xbf941cee	-1.1571329
212	0xbf943be9	-1.1580783
213	0xbe7c7be7	-0.2465664
214	0xbf7b2040	-0.98096085
215	0xbe8e0c02	-0.27743536
216	0x3e3a1edf	0.18175839
217	0x3f0392fd	0.5139616
218	0xbc903da7	-0.017607523
219	0xbebb220b	-0.3654941
220	0xbec177ec	-0.37786806
221	0xbf612b07	-0.8795628
222	0x3dab2210	0.08356106
223	0xbf8c9d35	-1.0985476
224	0xbdd3f78a	-0.10349949
225	0xbeb62319	-0.35573652
226	0xbeed426a	-0.46339732
227	0x3d5911a5	0.052995343
228	0xbefdafab	-0.49548087
229	0xbea98696	-0.33110493
230	0xc0039e81	-2.0565493
231	0xbe422c87	-0.18962298
232	0xbf39540e	-0.7239388
233	0x3dfeafa9	0.12435848
234	0x3e504532	0.20338896
235	0x3e991a86	0.29903048
236	0x3e8a6c98	0.27035975
237	0xbf3792d8	-0.7170844
238	0xbe6c9692	-0.23104313
239	0xbee712ee	-0.4513163
240	0xbfba4c7d	-1.4554592
241	0xbfc19fc0	-1.5126877
242	0x3e3df205	0.18549354
243	0xbe2b51fc	-0.16730493
244	0xbdb7a3a5	-0.089667596
245	0xbe43a68a	-0.19106498
246	0xbddc18a7	-0.107468896
247	0xbf3266b2	-0.6968795
248	0xbd965e07	-0.07342153
249	0xbfab7c6f	-1.3397349
250	0xbf3636ff	-0.7117767
251	0xbf8fdc9a	-1.1239197
252	0xbdb60823	-0.08888271
253	0x3e913127	0.28357813
254	0xbf2f4e82	-0.6847917
255	0x3e661935	0.22470553

l2.bias f4 [300]
0	0x3c1ca23f	0.009560167
1	0xbc52378b	-0.012830625
2	0x3d3f1c76	0.046658
3	0x3cee587f	0.029094933
4	0x3cc68900	0.024235249
5	0x3d22fdd8	0.039792866
6	0xbc95c838	-0.018283948
7	0xbd32ddf9	-0.04366872
8	0x3d8eae61	0.06966854
9	0xbd8d8aa5	-0.0691121
10	0xbd47d58b	-0.048787635
11	0x3d2d5993	0.042321753
12	0x3d2f3ba6	0.042781495
13	0x3c3afd47	0.011412925
14	0x3f3c7e90	0.7363062
15	0x3d9488a0	0.07252622
16	0xbd88a9bb	-0.066729985
17	0x3f1694c0	0.58820724
18	0xbeaea943	-0.3411351
19	0xbaad9232	-0.0013242422
20	0xbd1ced6b	-0.038312357
21	0xbd862404	-0.06549838
22	0xbc04105f	-0.008060544
23	0x3b8f8d72	0.0043808753
24	0xbd63e97c	-0.05564259
25	0xbce3ff42	-0.027831677
26	0xbd5da340	-0.054110765
27	0x3be48dc2	0.0069749067
28	0x3dcf898c	0.10133657
29	0x3d50ad60	0.050946593
30	0xbe253513	-0.16133527
31	0xbd4972db	-0.0491818
32	0x3d5ea90e	0.054360442
33	0xbd21db6c	-0.039515898
34	0xbd63ac73	-0.055584382
35	0x3f480c43	0.7814371
36	0xbd187106	-0.037217163
37	0x3e0926e5	0.13393743
38	0xbd97b17b	-0.074068986
39	0xbd457d1a	-0.04821501
40	0x3d0ccd8d	0.034375716
41	0x3e9ea192	0.30982643
42	0xbd0ba84a	-0.03409604
43	0x3cb8b164	0.022545524
44	0x3bbfaad8	0.0058492236
45	0xbd56e0fa	-0.052460648
46	0x3d0b7459	0.034046505
47	0x3ea10df9	0.31455973
48	0xbca7302e	-0.020408716
49	0x3ef104ec	0.47074068
50	0xbc1031b5	-0.008800914
51	0x3cb9d02e	0.022682276
52	0xbbf11288	-0.0073569454
53	0x3ca69176	0.020333033
54	0xbcf49c79	-0.029859768
55	0xbd3ced1b	-0.04612456
56	0x3d3592db	0.044329505
57	0xbd530cdb	-0.05152593
58	0xbd1c78d1	-0.038201157
59	0xbcd440a2	-0.025909726
60	0x3d5d1af8	0.053980798
61	0x3c8e2a5d	0.017354185
62	0xbcf843af	-0.030305712
63	0xbb543bdf	-0.0032384319
64	0x3d6e3ec9	0.058165345
65	0x3dec82cf	0.11548387
66	0x3f3fb277	0.7488169
67	0x3cba6438	0.022752866
68	0x3d1355a3	0.03597034
69	0xbe11f26e	-0.14252636
70	0xbcb39292	-0.021920476
71	0x3f02ee4d	0.5114487
72	0x3d71ad6b	0.059003275
73	0x3d0303a5	0.031985898
74	0x3e1adf13	0.15124159
75	0x3c4063fa	0.011742586
76	0x3b6285ea	0.0034564682
77	0xbd968b3d	-0.07350776
78	0x3f0da725	0.5533317
79	0x3d3d5efa	0.046233155
80	0x3d1a6477	0.037693467
81	0x3c4576fa	0.012052292
82	0x3dbdc9c1	0.09266997
83	0xbe2c458f	-0.1682341
84	0x3ac2c3f5	0.0014859425
85	0x3de5d8d7	0.112229995
86	0x3f023ba3	0.5087225
87	0xbd443c24	-0.047908917
88	0xbd6c4f0c	-0.057692572
89	0xbc1222af	-0.008919402
90	0x3c5ad66c	0.013356786
91	0xbd11f71f	-0.035636064
92	0x3d910865	0.07081679
93	0x3d050b96	0.032481752
94	0xbd27bc53	-0.040951084
95	0x3ef7c63f	0.48393437
96	0xbd92d936	-0.07170336
97	0xbd5bc57e	-0.05365514
98	0xbd4956d4	-0.04915507
99	0xbd1d9935	-0.038476188
100	0xbcb3a52b	-0.021929344
101	0xbd987648	-0.07444435
102	0xbd210e8d	-0.039320517
103	0xbcc64100	-0.024200916
104	0xbcb75f70	-0.022384375
105	0xbd5f667f	-0.054541107
106	0xbd133677	-0.035940614
107	0xbda9d1ff	-0.08292007
108	0x3eb44843	0.3521138
109	0x3ed4fce0	0.41599178
110	0xbdb3438e	-0.087531194
111	0xbd254f2b	-0.040358704
112	0xbe3ca716	-0.18423113
113	0x3d0ee343	0.034884702
114	0x3e279ec0	0.16369152
115	0xbe8bfe21	-0.27342322
116	0x3a77bac0	0.000945013
117	0xbed61084	-0.41809475
118	0x3f43bf34	0.7646363
119	0xbd2cf990	-0.04223019
120	0xbe1dbe13	-0.15404539
121	0xbe9821bd	-0.2971324
122	0xbd0248a2	-0.03180755
123	0x3eb631bf	0.35584828
124	0xbd000f8f	-0.031264838
125	0xbc759007	-0.014987952
126	0xbd9af168	-0.07565576
127	0xbce86504	-0.02836848
128	0xbc9997d3	-0.018749153
129	0xbc9b2632	-0.018939111
130	0x3c82e4ba	0.015978206
131	0x3c820162	0.0158698
132	0xbe742583	-0.23842435
133	0xbea52382	-0.32253653
134	0xbd6d7bd6	-0.057979427
135	0xbc4ec55d	-0.012620297
136	0xbdb2ac88	-0.08724314
137	0x3c581f76	0.013191095
138	0x3d9d727b	0.07687851
139	0x3f3e5b37	0.7435793
140	0xbce2863c	-0.027651899
141	0x3dc1e5e9	0.0946768
142	0x3d218704	0.0394354
143	0xbd2bfdd0	-0.0419901
144	0xbe307a42	-0.17234138
145	0xbdddcdb8	-0.10830253
146	0x3d092a52	0.033487625
147	0x3dc8a9c4	0.09798005
148	0x3d1d6d4b	0.038434308
149	0x3c41dd3b	0.011832531
150	0xbe097824	-0.13424736
151	0x3c57fa27	0.0131822
152	0x3c6211b9	0.013798171
153	0x3de82eb7	0.11337035
154	0x3d163953	0.036675762
155	0x3d301e69	0.04299775
156	0xbdae155d	-0.085001685
157	0x3b7d900b	0.0038690593
158	0xba2827c5	-0.00064146175
159	0xbd910a7e	-0.07082079
160	0x3b32fce9	0.002731139
161	0x3d19e66d	0.037573267
162	0x3db667ab	0.08906492
163	0xbc284712	-0.010270851
164	0x3c06cd81	0.008227707
165	0xbd324c43	-0.04352976
166	0xbd477f02	-0.04870511
167	0xbd4bf11d	-0.04979049
168	0x3cfed2d0	0.031106383
169	0x3d1d4e3c	0.03840469
170	0xbc95492c	-0.018223368
171	0x3f3adafc	0.72990394
172	0x3d04d52a	0.03242985
173	0x3ccaab29	0.024739819
174	0x3cec9c23	0.028883046
175	0x3cb049b4	0.02151952
176	0x3d833d7b	0.06408211
177	0x3c9b164c	0.01893153
178	0xbd1746e3	-0.036932837
179	0xbd9fb76b	-0.07798656
180	0x3d40126d	0.046892572
181	0xbdaa3754	-0.08311334
182	0x3d121d1b	0.03567229
183	0x3c82618c	0.015915655
184	0x3be2d9d1	0.0069229384
185	0xbcbd39fc	-0.023098938
186	0x3d06c1c1	0.032899622
187	0x3ebf13b3	0.37319717
188	0xbd6cc52d	-0.05780523
189	0x3bbf6135	0.0058404454
190	0x3b660396	0.0035097352
191	0x3d0351c1	0.03206039
192	0x3d1cd465	0.038288493
193	0x3ceca963	0.028889364
194	0xbc9290f8	-0.017891392
195	0xbd22374d	-0.03960352
196	0x3d2c1030	0.042007625
197	0xbbb2ed57	-0.005460422
198	0x3cb3da89	0.021954792
199	0xbbd3a64d	-0.0064590336
200	0xbe8e2b45	-0.27767387
201	0xbc45d78e	-0.012075318
202	0x3f0da60d	0.553315
203	0xbccf22d7	-0.025285168
204	0xbe40f22b	-0.1884238
205	0x3dc6accc	0.09700927
206	0xbdb43741	-0.08799601
207	0xbc901e5d	-0.017592603
208	0x3d90a210	0.07062161
209	0xbd36c938	-0.04462549
210	0xbc07d92a	-0.008291522
211	0xbd46c630	-0.04852885
212	0xbc9ef019	-0.019401597
213	0x3ced927d	0.029000515
214	0x3cabcee5	0.020972678
215	0x3f490387	0.7852101
216	0xbc24ec7f	-0.010066151
217	0x3f29a4e2	0.66267216
218	0xbbbcd4f5	-0.005762691
219	0xbd04f9f5	-0.03246494
220	0xb948802e	-0.00019121237
221	0x3e4f0397	0.20216213
222	0xbde29238	-0.11063045
223	0x3ee9c4c0	0.4565792
224	0x3d86ac4c	0.06575832
225	0x3da644af	0.08118569
226	0x3c2dd97f	0.010610937
227	0x3d2fd26a	0.042925276
228	0xbd4864f5	-0.048924405
229	0xbd44a410	-0.048008025
230	0x3dcc7523	0.099832796
231	0xbe397a65	-0.18113096
232	0x3cf4a22e	0.02986249
233	0x3f37a100	0.7173004
234	0x3dd5b96c	0.10435757
235	0x3cca6a1d	0.024708802
236	0x3dae3006	0.085052535
237	0xbc9d69d5	-0.019215504
238	0x3e1e4447	0.15455733
239	0xbcb5a2ff	-0.02217245
240	0xbbad8733	-0.005295658
241	0x3c607ce1	0.013701648
242	0xbd0f2ab6	-0.03495284
243	0x3a8c3702	0.0010697546
244	0xbb8a0184	-0.0042116065
245	0x3e86ef0b	0.2635425
246	0x3cca6a37	0.02470885
247	0xbbb21d27	-0.005435604
248	0xbc2d3add	-0.010573116
249	0x3e0caa69	0.13736881
250	0x3bad7b25	0.005294221
251	0x3e6ec8ae	0.2331874
252	0x3c97a33b	0.018510452
253	0xbd98b69b	-0.07456704
254	0xbad154a7	-0.0015970663
255	0x3d007bd4	0.03136809

l3.weight f4 [1, 300]
0	0xbf727d21	-0.9472218
1	0xbba8c671	-0.005150609
2	0xbd1c71dc	-0.038194522
3	0x3cac02f4	0.020997502
4	0x3d156e0a	0.036481895
5	0xbd228657	-0.039678898
6	0x3d6df82b	0.058098
7	0xbd4131e0	-0.047166705
8	0xbe8f6e9e	-0.28014082
9	0xbd003305	-0.031298656
10	0x3d10caa5	0.035349507
11	0xbcb383f5	-0.021913508
12	0xbb832378	-0.004002031
13	0x3c190632	0.009339856
14	0xbf1f1335	-0.6213868
15	0xbcf783d9	-0.030214237
16	0xbcdcc100	-0.026947498
17	0xbec49c2d	-0.38400403
18	0x3cb8a107	0.022537721
19	0x3caaa372	0.02082989
20	0xbcc5ce0e	-0.024146106
21	0x3b9e0c3f	0.004823237
22	0x3c7b3696	0.0153328385
23	0xbbba0be1	-0.0056776856
24	0xbfa12c2b	-1.2591604
25	0x3b746b79	0.0037295504
26	0x3d0d46d5	0.03449138
27	0x3c6feb27	0.014643467
28	0xbf6e67e6	-0.93127286
29	0x3abb5f88	0.0014295438
30	0xbda7c97b	-0.08192726
31	0x3d123b70	0.035701215
32	0x3ce6abae	0.028158035
33	0xbba510eb	-0.005037417
34	0xbcac9d6d	-0.02107116
35	0xbf2799e5	-0.654692
36	0xbb026e04	-0.0019902
37	0xbf9e06c0	-1.234581
38	0xbc66da37	-0.014090112
39	0x3d43d8f3	0.04781432
40	0xbba7530f	-0.005106337
41	0xbe82301b	-0.25427327
42	0x3d16494c	0.036690995
43	0x3c361e74	0.011115659
44	0x3cb1827a	0.021668661
45	0x3c5bb3d5	0.0134095745
46	0xbcbedb2b	-0.023297867
47	0xbf08ce62	-0.53439915
48	0xbd384e65	-0.044996638
49	0xbeb7424d	-0.3579277
50	0x3cc000c9	0.023437874
51	0x3cd1f41d	0.025629098
52	0x3d528556	0.05139669
53	0x38374326	4.3693137e-05
54	0xbaf1c1e2	-0.0018444622
55	0x3c967ba8	0.01836951
56	0xbba83fda	-0.005134565
57	0x3cf03e59	0.029326605
58	0x3c724d9f	0.014789014
59	0xbc83328d	-0.016015315
60	0x3c3c8d85	0.01150835
61	0x3c243d89	0.010024437
62	0x3cbeae67	0.02327652
63	0xbb7e5edf	-0.0038813872
64	0xbb5a1f23	-0.003328272
65	0xbcdd3da1	-0.027006926
66	0xbed4e8d4	-0.41583884
67	0xbc217470	-0.009854421
68	0x3cc89844	0.024486668
69	0xbe8c5a0c	-0.2741245
70	0x3d3b879b	0.04578362
71	0xbe6808dc	-0.2265963
72	0x3cdab007	0.026695265
73	0x3b1b33a8	0.0023681913
74	0x3cadcc1e	0.021215495
75	0xbcbcf97f	-0.023068188
76	0xbb6aaf3d	-0.0035810017
77	0x3a0fc79c	0.0005484761
78	0xbddef3ed	-0.10886369
79	0x3cf37ba1	0.029722037
80	0x3c19b7ee	0.009382231
81	0x3c851e6c	0.016249858
82	0x3cec0c66	0.028814506
83	0xbf4027bd	-0.75060636
84	0x3aab6aab	0.0013078054
85	0x3e2bcb5e	0.16776797
86	0xbe89cc86	-0.26913851
87	0x3d3effe2	0.046630748
88	0x3b81e270	0.003963761
89	0x3d2325ad	0.039830852
90	0x3ca3d759	0.020000147
91	0xbc211592	-0.009831803
92	0x3ce792a4	0.028268166
93	0x3c354df6	0.011065951
94	0x3d1bacb4	0.0380065
95	0xbe0d0a9a	-0.13773575
96	0x3c5c8f5c	0.013461914
97	0x3c8395a2	0.016062561
98	0xbca129a0	-0.019673169
99	0x3cb1a080	0.021682978
100	0x3d44eae7	0.048075583
101	0xbed34670	-0.41264677
102	0x3d056b7e	0.032573216
103	0x3cb1b6a2	0.021693531
104	0x3c81a414	0.015825309
105	0xbcc3cdb0	-0.02390179
106	0xbcc8ca7a	-0.02451061
107	0x3d54bcac	0.051937744
108	0xbf831ef6	-1.0243824
109	0xbf524101	-0.8213044
110	0xbc67e4f7	-0.014153711
111	0x3c79fc4a	0.015257904
112	0xbf4b01dd	-0.7929972
113	0xbc6d9b2e	-0.01450233
114	0xbcde3022	-0.02712256
115	0x3e0c18da	0.13681355
116	0x3cf7b280	0.030236483
117	0xbb30ef4a	-0.0026998096
118	0xbe536d69	-0.20647205
119	0x3c533c14	0.012892742
120	0xbf47f7f4	-0.7811272
121	0xbc2eb8d0	-0.01066418
122	0x3be4fbcf	0.0069880257
123	0xbea218ce	-0.3165955
124	0xbc8b2671	-0.016986104
125	0x3bd4bea4	0.0064924527
126	0x3cad9cce	0.021192934
127	0x3cabc996	0.020970147
128	0x3d1a4805	0.03766634
129	0x3d017156	0.031602226
130	0xbcf1fc3e	-0.029539224
131	0xbaac7a1a	-0.0013158948
132	0xba1bbf04	-0.00059412443
133	0xbe4ad692	-0.19808415
134	0xbc3af797	-0.011411569
135	0x3a551bd4	0.0008129452
136	0xbc0a8e53	-0.008456784
137	0x3ce7e8ea	0.028309304
138	0xbcc44f7b	-0.02396368
139	0xbf0e7f70	-0.55663204
140	0xbcb67112	-0.022270713
141	0x3c90c50c	0.017672084
142	0x3c8a10f8	0.016853794
143	0x3ce35daf	0.027754633
144	0xbdc490e3	-0.095979474
145	0xbc2c2f26	-0.010509288
146	0x3d4b3199	0.049607847
147	0xbcb97784	-0.022639997
148	0xbc7af3c1	-0.0153169045
149	0xbbc8bc10	-0.0061259344
150	0x3e0329c5	0.12808903
151	0x3cb3c0d2	0.02194253
152	0x3cb36162	0.021897022
153	0xbfc69961	-1.5515558
154	0x3bd13870	0.0063849017
155	0xbcc50545	-0.024050364
156	0xbcf14bc5	-0.029455075
157	0x3c9e4bbf	0.019323228
158	0xbce311e4	-0.027718492
159	0x3bacb11e	0.0052701375
160	0x3c8e6f34	0.01738701
161	0x3c9d3c8e	0.019193914
162	0x3cff0adf	0.031133113
163	0x3ce3b065	0.027794072
164	0x3cead30c	0.028665088
165	0xbcb29a98	-0.021802232
166	0x3c9da7b6	0.01924501
167	0x3d1f9ee7	0.0389699
168	0x3d1873c7	0.03721979
169	0xbcaa0ad3	-0.020757115
170	0x3b9318ed	0.0044890554
171	0xbe4fbfe8	-0.2028805
172	0x3d51600d	0.05111699
173	0xbb155843	-0.0022788204
174	0xbce0d6c1	-0.027446153
175	0xbdb59801	-0.08866883
176	0x3cb7d6e7	0.02244134
177	0x3b8a8c2d	0.004228136
178	0x3d0b7888	0.034050494
179	0xbca6edee	-0.020377126
180	0x3c9022c8	0.01759471
181	0x3c24f09d	0.010067132
182	0x3c914683	0.017733818
183	0x3c109fac	0.008827131
184	0xbc5cf7e6	-0.013486838
185	0xbb0893b0	-0.0020839982
186	0xba37c32e	-0.000700998
187	0xbf62b3ee	-0.885558
188	0x3d21c9dd	0.039499152
189	0x3cf44a7f	0.029820679
190	0xbcb0135d	-0.021493608
191	0xba83c306	-0.0010052628
192	0x3c187eb2	0.00930755
193	0x3d365ac1	0.044520143
194	0xbec4b553	-0.3841959
195	0x3d2d8144	0.042359605
196	0x3c81f9af	0.015866129
197	0x3cd69a40	0.026196599
198	0x3c39a844	0.011331622
199	0xbca61410	-0.020273238
200	0x3c3981a8	0.011322416
201	0x3bcc6a88	0.0062382855
202	0xbdca16ee	-0.09867655
203	0x3c68e518	0.014214776
204	0xbc0859bf	-0.008322178
205	0xbcccad2a	-0.024984915
206	0x3b71c488	0.0036890823
207	0x3bdff668	0.006834794
208	0x3c74dd6c	0.014945369
209	0x3d1a166e	0.037619047
210	0x3b5f4f15	0.0034074236
211	0x3d4a7c77	0.049435105
212	0xbc84aa18	-0.016194388
213	0xbcc1c7d6	-0.02365486
214	0xbc5c885c	-0.013460245
215	0xbeeb7291	-0.45985845
216	0xbb12b6df	-0.0022386832
217	0xbe8bffaf	-0.2734351
218	0xbb39f043	-0.0028371967
219	0xbc84b443	-0.016199237
220	0x3cc63f08	0.024199978
221	0xbc7dd68a	-0.015493045
222	0xbaec950b	-0.0018049789
223	0xbe82535e	-0.2545423
224	0xbf03c19b	-0.51467294
225	0xbf7cb225	-0.98709327
226	0x3ca83028	0.020530775
227	0x3ca0617f	0.01957774
228	0x3d4eaf04	0.050459877
229	0x3bacd731	0.0052746763
230	0xbc1a9110	-0.009434
231	0x3d135913	0.03597362
232	0x3d0c482f	0.034248527
233	0xbe3003c2	-0.17188933
234	0xbcda995b	-0.026684454
235	0xbce23b55	-0.027616182
236	0x3b55fa13	0.0032650277
237	0x3cd2282c	0.025653921
238	0xbeb3bcb5	-0.3510491
239	0x3d38bdfe	0.045103066
240	0x3cde1771	0.027110787
241	0x3cefd398	0.0292757
242	0x3bc3701d	0.0059642927
243	0x3d35e323	0.044406068
244	0x3ccb7e14	0.024840392
245	0xbf0b10f0	-0.5432272
246	0xbb7e5ad4	-0.0038811462
247	0x39ac1f8f	0.0003282991
248	0x3d0b2775	0.033973176
249	0xbc016a9d	-0.007898954
250	0x3cde3014	0.027122535
251	0x3c8bcc32	0.017065141
252	0x3c9d691e	0.019215163
253	0xbc4b3ecf	-0.012405111
254	0x3bec23b4	0.0072064046
255	0xbbf4d982	-0.007472218
